utils/benchmark-orientation/matlab/src/KeypointOrientations/GHHPooling/prelearned/efsift/layer4_W.npy (npy, 12880 bytes, 1 tensors)

array f4 [100, 2, 4, 4]
00000000: 145c 85be 09b3 e2bd c06c b7bd 2cec 79bf
00000010: 0ab2 7a3a 1e16 f5bd c39c 13bf 8c0b 44be
00000020: 6384 e83e 0f53 85bd 4558 5abf 9f4f d4bd
00000030: 3f2c acbe 9b9f 9ebe 294d 953d aa5a 1ebf
00000040: 627c 66bb f39d f63e 3337 f2be 0564 b23e
00000050: 4eb3 cbbe f66a 763d ce3c 983f 0d0f febd
00000060: 0f0b c2be 537c 623f e782 20bf 3136 05be
00000070: 1b9d 13bf 430f de3e e501 cd3e 7fdc 883e
00000080: 168e f43e 694c c7be b041 96be 0080 0c39
00000090: 58f3 c7be 06d5 45bf c577 36bd 749b b5be
000000a0: 00d7 a1bd 2fca d53e fcf6 0bbf c0f4 903e
000000b0: 3b4c 32be 8f9a dd3d d0da 203e 62e8 253f
000000c0: 0ba3 1e3b 4c2d 033d a6d2 b73f e61f 18bf
000000d0: 90f1 4a3f 57bb 923d 856c 473e 723b fdbe
000000e0: 0cf5 f93d b535 9b3d f770 fe3d 3010 9d3d
000000f0: 4880 10bf cd2a 72be 7bda 1abf d76a 17be
00000100: 4166 3dbf 99e6 de3e 2baf 413f 461f 573f
00000110: 5038 b1bd 3b2e 9dbe bc3f c83e 24ed 383f
00000120: a814 d73e cf61 8abe ae2d e43e 44b7 483e
00000130: 10b4 19bf 2562 293e 9267 15bf cee1 c33e
00000140: 13be 6bbe 69d7 3b3e ca5e a3be 82ab 10bf
00000150: 82eb df3e cd2f 763e a469 8e3f 35b0 db3e
00000160: e6f8 5ebf ecc2 843f 353b 51bf 152d 73bf
00000170: 95c3 333e da4d 773c 21c2 993d b372 94be
00000180: b2a8 10bf af57 dfbe a9b3 76be 29a1 393d
00000190: 8263 d73d 8804 f9be e078 a03e 7a06 203e
000001a0: cc28 8cbf 1e34 de3e 22e6 e23e 68aa bc3e
000001b0: d0a8 883e 7fdd cbbe 019d 30be fa74 0f3e
000001c0: bacb 313e 900a 83be 7413 613e 8d6f 103f
000001d0: 53c8 87be b475 70be efae 45be a04b 83bf
000001e0: d269 063f 2ee4 b3bf 9c5f a53e 2f22 98be
000001f0: a9d1 55bf 4e9b 5cbe edc0 67bf cdde 85bf
00000200: 3e6e 07bf da4a 973e c555 173f 3da4 30bf
00000210: d623 133f bf11 963e 9813 3d3f 8be9 383f
00000220: bbac 26bf fd3d ecbd 8fda f03d 22f1 dfbe
00000230: 3a48 d5be cd88 acbd 9e63 b6be 25ba f6be
00000240: f0f1 733e d8fd 0a3f a862 07bf 6268 6cbd
00000250: 7fa8 b3bf df2c 87bf cede c3bd d8ea 81be
00000260: da5d e13e d160 dcbe 2d9c 54bf 170d 423c
00000270: bb11 89bf 0ebc 0bbf 3b00 3cbf 11eb 1cbe
00000280: e3b5 01bf c5a7 58bf d88e c43e 4047 6e3f
00000290: 717d 8bbe 1c68 1ebf 0491 d0bb 9cbc ac3e
000002a0: 74fa 41bf 28bb df3d 1dbc 9bbe 0d2f acbe
000002b0: 0bcd c53e 5ab1 31bf 008e 91bf a3c5 8abf
000002c0: c68e 3a3f 3d9d 7dbe 8ea7 423f 7ade 24bb
000002d0: 6df2 39bf f03b 1ebf 6d37 afbd 7f98 9ebf
000002e0: e0ec 3e3e f264 a7bd f737 103e f888 873e
000002f0: 7dc2 ffbe e4e2 67be 438b ea3e a972 ccbd
00000300: d056 b63d 7e76 b53b 2ad8 eb3c 2cf7 1dbf
00000310: 16e4 adbd 5ff9 6a3e ca81 32bf f3ff 0c3f
00000320: 12db 893e fedf 5b3e 00c8 87be 5b9d f63c
00000330: 579e 72be 7d75 5e3c c79e 61be f51d 12bf
00000340: 5328 a53e 3a50 4c3f 2460 8cbe 3878 563e
00000350: 9a92 0bbf 4759 273f a803 473e 83bd fc3c
00000360: 2cd8 ae3d 7b49 56bd 81fd 44bf c110 df3e
00000370: 3026 d53d 0ac8 993e 094e cdbe bc43 c03e
00000380: 5128 ab3e c44e 47be 7094 df3d 1121 793e
00000390: 2308 bcbd b867 ccbd a64f 933e 5a22 ccbc
000003a0: 063e 183f d6da 943e 4273 e03e 2112 893d
000003b0: 503f 2abe 2f7a 00be 94bf 563f 2255 0c3f
000003c0: 328f 0fbf 95f2 20bf 72e5 8ebf d026 cebe
000003d0: 309b fcbb 37b1 09be 5024 31bf 6480 253f
000003e0: 8864 74be e515 673f 1b11 18bf 5930 acbf
000003f0: f19f 2bbf e335 9b3f d94d 383f d21a b43e
-0.26046813 -0.110693045 -0.08956289 -0.97625995 0.0009563273 -0.11967109 -0.57661074 -0.1914503
0.45413503 -0.06509983 -0.8529094 -0.10366749 -0.33627507 -0.30981144 0.07290108 -0.6185709
-0.0035169353 0.4816738 -0.4730774 0.34841934 -0.39785236 0.0601606 1.1893556 -0.124052145
-0.37899062 0.88470954 -0.6269974 -0.13008954 -0.576616 0.4337102 0.40040508 0.26730725
0.47764653 -0.38925484 -0.2934699 0.00013399124 -0.39052844 -0.7727817 -0.044547815 -0.35470164
-0.07902336 0.41755816 -0.54673743 0.2831173 -0.17411892 0.10820495 0.1570847 0.64807713
0.0024206068 0.03202562 1.436116 -0.59423673 0.79274845 0.071646385 0.1947499 -0.49459416
0.12204942 0.07578603 0.1242389 0.07669103 -0.5644574 -0.2364914 -0.60489625 -0.1478685
-0.7398415 0.43535307 0.7565791 0.84032094 -0.08653319 -0.30699334 0.39111125 0.7223685
0.42007947 -0.27027747 0.445661 0.1960116 -0.6004038 0.16541345 -0.5836116 0.38258213
-0.23021726 0.18343891 -0.31908256 -0.565117 0.43734366 0.24041672 1.1125989 0.42907873
-0.8709854 1.0371985 -0.8173097 -0.94990665 0.17555077 0.015094245 0.0750773 -0.2899376
-0.5650741 -0.43621585 -0.24091972 0.04531971 0.105170265 -0.4863627 0.3134222 0.1562747
-1.094995 0.43399137 0.44316202 0.3684876 0.26691294 -0.39817426 -0.17247392 0.14009467
0.17362872 -0.25593996 0.21980077 0.56420213 -0.26520023 -0.234824 -0.19305013 -1.0257454
0.5250522 -1.405401 0.32299507 -0.2971358 -0.8352304 -0.21543619 -0.90528756 -1.0458618
-0.5290259 0.29549295 0.5911525 -0.6900061 0.57476556 0.29310414 0.7385802 0.7223136
-0.65107316 -0.11535261 0.11760437 -0.43738657 -0.41656667 -0.0842453 -0.35622877 -0.48188892
0.2382276 0.54293585 -0.5288491 -0.057716735 -1.4035796 -1.0560569 -0.09563981 -0.25374484
0.44016916 -0.43042615 -0.83050805 0.011843941 -1.0708536 -0.54583824 -0.7343785 -0.15324046
-0.5066816 -0.84630996 0.3839023 0.9307747 -0.27244142 -0.6187761 -0.0063649435 0.33737648
-0.75772786 0.10924369 -0.30416957 -0.33629647 0.38632998 -0.6941124 -1.137146 -1.0841564
0.72874105 -0.24767013 0.7603692 -0.002515702 -0.7263554 -0.6181021 -0.085554935 -1.2390288
0.18645048 -0.08173551 0.14083849 0.26471686 -0.4995307 -0.22645146 0.45809373 -0.09982807
0.08903277 0.005537807 0.028789598 -0.6170528 -0.084907696 0.2294669 -0.6972929 0.5507805
0.2692495 0.21472165 -0.26519775 0.03010433 -0.23693214 0.013577816 -0.22033225 -0.5707696
0.32257327 0.79809916 -0.274171 0.20944297 -0.5452057 0.653706 0.19434988 0.030852085
0.08537325 -0.05231617 -0.76949316 0.4356747 0.10407674 0.3003543 -0.400986 0.37551677
0.33429196 -0.1946364 0.10916984 0.2432902 -0.091812395 -0.0998072 0.28771704 -0.024918724
0.5946964 0.2907321 0.43837935 0.06692911 -0.16625714 -0.1254661 0.83886075 0.548174
-0.56077874 -0.6287015 -1.1163771 -0.40263987 -0.0077089295 -0.13446508 -0.69196033 0.64649034
-0.23866475 0.90267783 -0.594011 -1.3452255 -0.67040926 1.212582 0.71993786 0.35176712
