utils/benchmark-orientation/matlab/src/KeypointOrientations/GHHPooling/prelearned/efsift/layer0_W.npy (npy, 1080 bytes, 1 tensors)

array f4 [10, 1, 5, 5]
0	0xbe8662c8	-0.2624724
1	0x3f3304b7	0.6992907
2	0x3f33fa4d	0.70303804
3	0x3f085f6b	0.53270596
4	0xbf79059e	-0.97274196
5	0xbdd498d2	-0.10380711
6	0xbf0d18ab	-0.55115765
7	0xbf838a41	-1.0276567
8	0x3deaa77d	0.11457727
9	0x3f47177e	0.7777022
10	0xbef60afd	-0.48055258
11	0xbf0f8e69	-0.56076676
12	0x3e4e27a8	0.20132315
13	0xbed950db	-0.424445
14	0x3f5ec96e	0.8702611
15	0x3e13d7c6	0.1443778
16	0xbf42d422	-0.7610494
17	0x3f61e8f0	0.8824606
18	0x3f1e5f3b	0.6186406
19	0xbf1a6b5c	-0.6032007
20	0x3f75d494	0.96027493
21	0x3f05837d	0.5215376
22	0xbf623872	-0.8836738
23	0xbed365ae	-0.41288513
24	0x3d904fa7	0.070464425
25	0xbe28f599	-0.16499938
26	0x3e218b1e	0.15775725
27	0x3f3d4bcb	0.73943776
28	0x3e292cc2	0.1652098
29	0x3b32293c	0.0027185222
30	0xbf031078	-0.51197004
31	0x3eb9d06a	0.3629182
32	0x3eb17331	0.34658197
33	0x3ecd99ec	0.40156496
34	0xbe401c00	-0.18760681
35	0xbf71ba17	-0.94424576
36	0x3eae35ff	0.3402557
37	0x3e868fb6	0.26281518
38	0xbec1370e	-0.37737316
39	0xbe863c28	-0.2621777
40	0xbe5c46ee	-0.21511433
41	0x3d144d0b	0.036206286
42	0xbeb444a2	-0.35208613
43	0xbfaff1f6	-1.3745716
44	0xbf137060	-0.57593346
45	0x3ec8ff3a	0.39257222
46	0x3f9982d2	1.1993048
47	0xbd0239fc	-0.03179358
48	0x3e8548a0	0.2603197
49	0x3ef59842	0.47967726
50	0x3f38f593	0.72249717
51	0x3efff20b	0.49989352
52	0xbee3490f	-0.44391677
53	0xbf01fbca	-0.50774825
54	0x3f318661	0.6934567
55	0xbcd166fc	-0.025561802
56	0x3ea68209	0.32521084
57	0xbf214ef6	-0.6301111
58	0xbf7d529c	-0.98954177
59	0xbd956dec	-0.072963566
60	0xbf61d7be	-0.8821982
61	0x3f02c07b	0.5107495
62	0xbebffdca	-0.37498313
63	0xbf8f0e22	-1.1176188
64	0x3f05caf7	0.52262825
65	0x3e104b2d	0.14091177
66	0x3f29de1c	0.66354537
67	0x3f833ac9	1.0252315
68	0xbeae4f7e	-0.34045023
69	0x3e6c6227	0.23084317
70	0x3ed3681e	0.41290373
71	0x3ec3ec2e	0.38266128
72	0xbe4c5ccb	-0.19957273
73	0xbf701dea	-0.93795645
74	0xbd90100c	-0.07034311
75	0xbeb6d9a1	-0.35712913
76	0xbed16783	-0.40899286
77	0xbecf7dd1	-0.40525678
78	0x3e933a23	0.28755292
79	0x3e872872	0.26398045
80	0xbef16160	-0.47144604
81	0x3e8dccc0	0.27695274
82	0xbe698127	-0.22803174
83	0xbe5ab3a4	-0.2135759
84	0x3ea2911a	0.3175133
85	0x3ece99a1	0.40351585
86	0xbdd7fa52	-0.10545792
87	0xbcc09961	-0.023510637
88	0xbdb7d227	-0.0897563
89	0x3f1e5377	0.6184611
90	0xbe25b7cf	-0.16183399
91	0xbe3bad2d	-0.1832778
92	0xbf18ad6a	-0.5963961
93	0x3e1660df	0.14685391
94	0xbf49709a	-0.7868744
95	0x3dfc3a56	0.12315814
96	0xbf0702e8	-0.5273881
97	0xbe13ded8	-0.14440477
98	0x3e1525bf	0.1456518
99	0xbef82e18	-0.48472667
100	0x3e03937f	0.12849234
101	0xbe958b16	-0.29207677
102	0x3e263b59	0.16233577
103	0x3e9179f9	0.2841337
104	0xbe6166ad	-0.22011824
105	0xbe411a65	-0.18857725
106	0xbe2a9b26	-0.16660747
107	0x3e88e093	0.26733837
108	0xbee32017	-0.4436042
109	0xbf44d958	-0.7689414
110	0xbe837122	-0.2567225
111	0xbeb08ecf	-0.34483954
112	0xbd84ca2e	-0.06483875
113	0xbf4a3719	-0.7899032
114	0x3e4de2a4	0.20105988
115	0xbe871a91	-0.26387456
116	0x3fcdd524	1.608067
117	0x3f1a4107	0.60255474
118	0xbe09277f	-0.13393973
119	0x3dfc2a88	0.123128
120	0x3f3317cb	0.6995818
121	0x3ecc8f44	0.39953053
122	0xbf75dc66	-0.96039426
123	0x3e5392af	0.20661424
124	0x3f49af7b	0.78783387
125	0x3ee45657	0.44597122
126	0xbdc17d64	-0.094477445
127	0xbdc323bd	-0.09528301
128	0x3e0ab964	0.13547283
129	0x3f1ee583	0.6206896
130	0xbd85f49a	-0.06540795
131	0x3f1ebb38	0.62004423
132	0xbebe90ac	-0.3721975
133	0xbf2a5325	-0.6653312
134	0xbea560f1	-0.32300523
135	0x3ebb3b4b	0.36568674
136	0x3f052adf	0.5201854
137	0x3e9083ec	0.28225648
138	0x3e9aa3e2	0.30203158
139	0x3f1435cc	0.5789459
140	0xbefbd29c	-0.4918412
141	0x3f26efa8	0.65209436
142	0xbd900997	-0.07033079
143	0xbe244b96	-0.16044459
144	0xbd79f27b	-0.061022263
145	0xbf0b132f	-0.54326147
146	0x3f12bdc4	0.5732081
147	0x3e5c1927	0.2149397
148	0x3f0cf77e	0.55065143
149	0xbeaa1f37	-0.3322694
150	0xbf101994	-0.5628903
151	0x3dec7300	0.11545372
152	0x3f0af6a6	0.54282606
153	0x3e394123	0.18091254
154	0xbe0712c7	-0.13190757
155	0xbd8e40ad	-0.0694593
156	0xbdd9f00a	-0.10641487
157	0x3eed0e63	0.4630004
158	0x3ee84a31	0.45369104
159	0xbe0ca6f0	-0.13735557
160	0x3ea6e6db	0.32598004
161	0xbf5dc519	-0.8662887
162	0x3e248e60	0.16069937
163	0x3ee687c8	0.45025468
164	0xbedcab55	-0.43099466
165	0xbe5cd7b7	-0.21566664
166	0xbe0761ac	-0.13220853
167	0xbfaf590a	-1.3699048
168	0x3efc45d7	0.49272034
169	0x3f204baf	0.62615484
170	0x3f49510c	0.7863929
171	0xbdab30e2	-0.08358933
172	0xbe606eb2	-0.21917227
173	0xbedd1069	-0.43176582
174	0x3edf0444	0.43557942
175	0xbf717c23	-0.9433004
176	0xbf0bcda8	-0.5461068
177	0xbf03b1ac	-0.5144298
178	0x3f2b492c	0.66908526
179	0x3ecf87f8	0.40533423
180	0x3f3567d0	0.7086153
181	0x3eb34156	0.35010785
182	0xbf3a99bd	-0.72890836
183	0xbf129548	-0.57259035
184	0x3f017065	0.50562125
185	0x3e1e9a35	0.15488513
186	0x3d9dad08	0.07699019
187	0x3ef8e149	0.4860938
188	0xbf1c3d8b	-0.6103141
189	0xbedb9c17	-0.42892525
190	0x3e88f06f	0.26745936
191	0x3efdeb40	0.49593544
192	0x3f236ba9	0.6383615
193	0xbe2178f3	-0.15768795
194	0xbf9bc10f	-1.2168292
195	0xbbae0c94	-0.005311558
196	0x3f0a1900	0.53944397
197	0x3cc41aa2	0.02393848
198	0x3eb8e7d7	0.3611438
199	0x3d44520e	0.047929816
200	0xbf8011cc	-1.0005431
201	0xbf3482f7	-0.70512336
202	0xbf2170b0	-0.6306257
203	0x3db9667b	0.0905275
204	0xbece3cea	-0.4028085
205	0xbe8791ac	-0.26478326
206	0x3e6cd408	0.23127759
207	0xbdde61d1	-0.10858501
208	0xba9e7788	-0.0012090066
209	0xbe38982d	-0.180268
210	0xbfa9ceab	-1.3266195
211	0x3d7f8d0e	0.06239038
212	0x3f22e976	0.63637483
213	0xbe4fe059	-0.20300426
214	0x3f9d60e3	1.2295192
215	0xbdca8716	-0.09889047
216	0x3f685dc2	0.90768063
217	0x3e64d3ab	0.2234637
218	0x3f61a6c4	0.8814509
219	0x3e00c0cc	0.12573546
220	0x3ebb1473	0.3653904
221	0x3d024363	0.031802546
222	0x3f628710	0.8848734
223	0xbe6f1a69	-0.23349918
224	0xbf1d96c2	-0.61558163
225	0xbf4b830f	-0.79496855
226	0x3b3942ae	0.0028268504
227	0x3ead9a06	0.33906573
228	0x3f32edf7	0.69894356
229	0xbf024ab4	-0.5089524
230	0x3895e286	7.147067e-05
231	0xbe7551f7	-0.23957048
232	0xbeb7e2fe	-0.3591537
233	0x3dd4e189	0.1039458
234	0x3ee080d7	0.43848297
235	0x3f39b401	0.7254029
236	0x3efd81f5	0.49513212
237	0x3d462c79	0.048382256
238	0xbdc44249	-0.095829554
239	0xbf14453f	-0.5791816
240	0x3ed23cbe	0.41061968
241	0x3ea776b3	0.32707748
242	0x3f10718b	0.5642325
243	0xbf4b0de3	-0.79318064
244	0xbebb084e	-0.36529773
245	0x3f1123f0	0.5669546
246	0x3e8541bf	0.26026723
247	0xbe477156	-0.19476828
248	0x3d8b7348	0.068090975
249	0xbf1eaf30	-0.61986065
