utils/benchmark-orientation/matlab/src/KeypointOrientations/GHHPooling/prelearned/efsift/layer1_W.npy (npy, 20080 bytes, 1 tensors)

array f4 [20, 10, 5, 5]
000000 63 95 14 3e b6 c6 a4 3e 7a 82 b2 3e da 23 32 bf
       0.14510112 0.32182854 0.3486517 -0.69585955
000010 4d b6 0c 3d b4 9a f9 3e 52 dd 5d 3f 62 3f 66 be
       0.034353543 0.48750842 0.86665833 -0.22485116
000020 af f1 18 bf 24 4f d0 3e 84 fb 99 be c9 6e 34 3f
       -0.5974378 0.4068538 -0.30074704 0.70481545
000030 0a 5b 6e bd 4f 6c 11 be 96 65 1f be e2 97 ed be
       -0.05819229 -0.14201473 -0.15566096 -0.4640494
000040 91 3e a8 be 1e 47 d5 3d 40 e1 49 3e 26 df 40 bf
       -0.32860234 0.10413955 0.19714832 -0.753405
000050 28 76 1d 3f b3 d9 8b bd f6 94 95 3e 88 47 e9 3e
       0.6150842 -0.06828632 0.2921521 0.45562387
000060 f0 27 59 3d 09 14 17 bf 39 13 50 3e d7 86 84 3f
       0.053016603 -0.59014946 0.20319833 1.035365
000070 43 3e d6 3e 48 be 8d be c1 05 10 bf d5 be 57 bf
       0.41844377 -0.27684236 -0.5625878 -0.8427556
000080 be 5b c9 3d 53 c5 43 bd cd c3 12 be cb e1 03 3e
       0.098319516 -0.047795605 -0.14332505 0.12879102
000090 a8 77 6c be 15 46 c2 be 54 00 21 ba bf 45 94 bd
       -0.2309252 -0.37944093 -0.00061417115 -0.072398655
0000a0 dd ad 18 be 85 e8 39 bf 8c 6b ff be 92 b8 71 3f
       -0.14910074 -0.7262042 -0.4988674 0.94422257
0000b0 b7 aa 3e 3e 4c 53 28 3e 80 22 1c 3f a2 53 0b be
       0.1861981 0.16438025 0.6099014 -0.13606122
0000c0 1d 67 9a bd 6d 3a d3 3e 53 83 de 3d 7c 9b 0b be
       -0.075391985 0.41255513 0.10864892 -0.13633531
0000d0 1f de 15 bf 90 a1 4e 3f a6 cb 22 3f 85 e8 85 be
       -0.58542055 0.80715275 0.6359199 -0.2615396
0000e0 97 44 b5 3e 7d f2 12 bf 92 e3 83 bf 0a 57 5f be
       0.35403892 -0.5740126 -1.0303824 -0.21810547
0000f0 ee 55 40 3f b5 73 d4 bd 47 24 db 3e 2d a0 19 bf
       0.7513112 -0.10373632 0.42801115 -0.60010034
000100 67 b2 52 bf 6b 6f 0e 3d 7a a7 de be 08 c7 b3 3e
       -0.8230347 0.034774225 -0.4348715 0.35112786
000110 a5 6a 9b 3e 1c a1 f2 3c e5 25 a4 3f c2 96 83 3f
       0.303548 0.029617839 1.2824064 1.0280383
000120 c8 6b 02 bf 64 a8 7b 3f 98 f8 10 3e 7b 1f ca 3e
       -0.5094571 0.9830382 0.14157331 0.39477143
000130 e1 a5 c0 3e a8 a1 32 3f ce 3e bf 3d 3f 9c 5f 3e
       0.37626556 0.6977792 0.09338151 0.21836947
000140 ca 34 29 3e a6 26 a1 3e a2 6b 25 bf e2 2c b0 be
       0.16524044 0.314748 -0.6461736 -0.34409243
000150 b3 6e d3 3e dd 6d 20 3f df 93 9d 3e 2c 66 88 3c
       0.41295394 0.6266764 0.3077688 0.016650282
000160 48 3b 2c be c6 38 e2 bd d9 26 14 3e b9 05 ab be
       -0.16819489 -0.11045985 0.14467944 -0.33402804
000170 b7 c5 1f be b3 d2 a7 be 28 49 93 bf 64 d8 df be
       -0.15602766 -0.32777938 -1.15067 -0.4371978
000180 88 2f 4c 3c f9 16 33 bf a2 7c 51 be ee e9 8f 3e
       0.012462504 -0.6995693 -0.204577 0.28108162
000190 4f 84 70 bf 51 e9 91 bf 23 9a dd be 18 2b 1a bf
       -0.93951887 -1.1399328 -0.4328166 -0.60222006
0001a0 22 4e 24 be 25 76 ba bd 76 29 f1 be ae c7 0e be
       -0.1604543 -0.091045655 -0.47101945 -0.1394336
0001b0 41 35 b6 bd 1d f0 03 3e 1a 21 17 3f 57 e6 40 3e
       -0.08896876 0.12884565 0.59034884 0.18837868
0001c0 fd 1d 2d 3e a4 0c b7 3e 65 cc 9a 3d 1b 3e 39 bf
       0.16905971 0.35751832 0.075585164 -0.7236039
0001d0 d3 6b 85 bf 7e f7 25 3d ec a9 3b bf 36 95 08 be
       -1.042353 0.04051923 -0.73306155 -0.1333817
0001e0 14 1a 2f 3e 7c a9 1f bf 39 28 9d 3d 71 32 01 bf
       0.17099792 -0.6236799 0.076736875 -0.5046759
0001f0 15 46 ec be 84 71 02 bf 30 13 d8 be ce a6 b2 bd
       -0.46147218 -0.5095446 -0.4220214 -0.08723222
000200 48 c9 2e 3e d6 4b b1 be 98 8a 19 be 0f 29 5f bf
       0.1706897 -0.3462817 -0.14994276 -0.87172025
000210 ed 32 11 be c0 ab 5b 3f d3 0a 92 be 59 67 5e 3f
       -0.14179583 0.85808945 -0.28523883 0.86876446
000220 1c b7 8f 3e 4a e1 83 3f 2f ef 8e 3e 9a 3f 1f be
       0.2806939 1.0303128 0.27916858 -0.15551606
000230 7a 89 dc 3e eb aa 3a bf 11 51 3c be d1 94 69 be
       0.43073636 -0.7291705 -0.183903 -0.22810675
000240 c1 ea a2 3e 31 94 69 be 03 ac 92 3e 14 fd 59 3e
       0.31819728 -0.22810437 0.2864686 0.21287948
000250 a5 69 42 3f ac ee 72 3e 0e d6 21 be 41 48 ad 3e
       0.7594245 0.23723859 -0.15804312 0.33844188
000260 ad 78 c0 3d d8 9b e8 3e a1 64 df 3c 3b bc c8 3e
       0.09398017 0.454314 0.027269663 0.39206108
000270 95 1b 45 3f af 7a a0 3e 1c 38 64 bd e3 b7 65 3f
       0.7699521 0.313436 -0.055717573 0.89733714
000280 7d d4 8a bd f8 26 95 bd c7 fd 01 3e 57 23 4c 3e
       -0.0677881 -0.07282823 0.12694465 0.19935356
000290 7e 07 ce be 4f fd b2 be b9 52 9a bf d3 c4 39 bc
       -0.4024009 -0.34958884 -1.2056495 -0.01133843
0002a0 ea c9 ff be 51 78 4a 3e ab 0e f6 bd 1f 06 00 3f
       -0.49958736 0.1977246 -0.120145164 0.5000934
0002b0 d0 f3 3c 3e 34 9b 67 3e 60 56 53 3f 79 0b 15 3f
       0.18452382 0.22617799 0.8255367 0.5822063
0002c0 a4 34 b9 3c 32 05 82 bf a4 f9 e7 3e 78 c7 d4 3e
       0.022608109 -1.0157835 0.45307648 0.41558433
0002d0 38 5b a3 be b6 ec 44 bf 0a ff db bf 62 48 ce 3d
       -0.31905532 -0.7692369 -1.7187207 0.100724
0002e0 25 85 ce be 86 50 0d 3f 4d f2 51 bf 61 c9 96 3f
       -0.40335956 0.55200994 -0.82010347 1.1780206
0002f0 1d 43 53 be be b0 a7 3e fb e7 92 3e 0a de 1e 3e
       -0.2063107 0.3275203 0.28692612 0.15514389
000300 6e 73 1c 3c 4a 48 1a be f0 d3 b1 bd a4 a8 4f 3e
       0.009549005 -0.15066639 -0.08683002 0.20279175
000310 ef c3 e4 be ba 64 59 bb cc 5c 65 bc 37 fa f4 be
       -0.44680735 -0.003317161 -0.013999175 -0.4784715
000320 b4 ed 30 bf f7 41 1f bf f5 bb c7 3e 06 a7 99 be
       -0.69112706 -0.6221003 0.39010587 -0.3001024
000330 64 b7 6a 3f 63 d8 4e bf 2a ee 55 3f 58 7e 35 3f
       0.9168608 -0.8079893 0.83566535 0.7089591
000340 8b 0a 14 3f b3 f7 b6 3e 7b 84 0f 3f 61 3b 14 3e
       0.5782859 0.35735855 0.56061524 0.14475776
000350 4e 1b 23 bf 95 0f 89 be 1a 15 ad bd c4 49 e7 be
       -0.6371354 -0.267697 -0.084512904 -0.45173466
000360 0a 10 28 3d a8 05 8b bf 76 d0 3f 3e 98 98 86 be
       0.04103092 -1.0861101 0.18731865 -0.26288295
000370 91 3c 93 bc 1f 11 f3 be 39 a4 45 3f 8d 34 59 3e
       -0.017973216 -0.47474 0.7720371 0.21211453
000380 aa 51 a3 3c a7 d9 85 3e 8b c4 39 bf 44 35 7c bf
       0.019936401 0.26142618 -0.72565526 -0.98518777
000390 64 e2 eb bb 16 26 dd be 9e e8 94 be 3c 07 90 3e
       -0.0071986187 -0.4319312 -0.29083723 0.2813052
0003a0 51 b8 10 be 6a 43 4c 3e ce 87 bb 3e 53 cc cf be
       -0.14132811 0.19947591 0.36627048 -0.40585575
0003b0 ed 69 4c bf 86 bc d5 be 11 84 2b 3f 38 8c b0 bd
       -0.7984913 -0.41745394 0.6699839 -0.086204946
0003c0 f4 28 4e 3d b1 12 15 3f a0 6f 88 be c4 c6 f2 3e
       0.050332025 0.58231646 -0.26647663 0.4741727
0003d0 19 c9 7d be 1c b5 6f be 61 50 f2 be 5a 25 8f bd
       -0.24783744 -0.23408931 -0.4732695 -0.06989546
0003e0 2b 7e 09 3e 9b 85 a9 bd 1b b3 d6 3e 6f 0d 49 3e
       0.13427036 -0.08277436 0.41933522 0.19634031
0003f0 fa 09 ba 3d 47 92 8d 3f 74 0f 9f be 0a bc d6 3e
       0.09083934 1.1060265 -0.31066477 0.41940337
