utils/benchmark-orientation/matlab/src/KeypointOrientations/GHHPooling/prelearned/efsift-360/layer1_W.npy (npy, 20080 bytes, 1 tensors)

array f4 [20, 10, 5, 5]
00000000: cb80 4040 3e95 1d40 b93a 1840 bfe7 993f
00000010: e273 d73f 0e18 5340 74a3 5d40 079b 2340
00000020: 1e54 dc3f 1d82 0740 9290 1f40 7c4e 4c40
00000030: 105e f53f b444 f33f cd33 f73f 8b53 2340
00000040: 7495 1240 3d2e 0440 086a 0340 d84f f63e
00000050: 21a6 2440 48e5 c13f bdb0 ee3f 8c90 0240
00000060: 23be 8f3f 2467 aabf 4845 1ac0 e895 d0be
00000070: 2769 0ec0 be98 0ac0 dc87 77bf 66b4 a2bf
00000080: 22ba 90bf c291 35be 490b 17bf fbd6 00c0
00000090: 9be7 dbbf 0055 bdbf c316 3cbf a964 d0bf
000000a0: 8d6e a2bf 64e6 bfbf 496d c9bf 7c2e 993e
000000b0: 3bfa 08bf 5b36 c0be 21dd 0ec0 8eac b7bf
000000c0: 83e2 03c0 3653 a4bf c5d7 d9c0 88f7 02c0
000000d0: d355 a63f 823f 0740 ba9f 1b40 a153 82c0
000000e0: f70e fd3d 43f8 5bc0 62e7 f1bf 3be5 ebbe
000000f0: d0d8 3ebe 3b9c 8cbf 67ad fd3d f4a2 b9be
00000100: 1f03 d53f 3f7e 52c0 f6bd ea3f 0989 973f
00000110: f9d9 913f f2b7 9e3f ede2 a7c0 e381 8d3f
00000120: 08d4 3b3f 228c 043f b265 05c0 dda1 d23f
00000130: c86b ccbd 8ea4 c63f 0571 b83e b4f0 283f
00000140: a7d4 0f40 a17a f53e 5553 3e3f 5175 883f
00000150: 40b9 cd3f 0e92 f13f 5885 56bd c233 113f
00000160: 206c 683d 6a0c 5d3f 843e c93f 0b97 1bbf
00000170: 34c9 233f 7343 a9be 25ee 723e 6591 ad3f
00000180: 96c2 933e 324d 333f 44de 9b3e 51a6 bc3f
00000190: e7c3 6dc0 018d aa3f 2850 a03f 48f8 513f
000001a0: cf6d 81be feb6 c4be ffec 7a3f 3232 aabe
000001b0: e6f7 023f a1b4 a2bf 74ed 04c0 ba7c e73f
000001c0: cae6 ed3f e89a bb3f c82d 203d 2aeb 62c0
000001d0: dfa6 823f 2951 c23f 2a5e 073f 9f70 c63f
000001e0: 7818 2cc0 6c23 303e c64a 7fbf c6f2 c4bf
000001f0: e569 08bf 72a8 933e 717e 87bf c62c e3bf
00000200: b876 0d3f f59a 713f 04c1 f1bf 49be 66bf
00000210: 2d36 ccbe 396c c63f ee75 bf3e daa3 a6bf
00000220: c06d bb3f 9e4b 2d40 32a6 743f e9cc 793f
00000230: 4758 dbbf 9fd5 cf3f 8852 8d3f cd26 233f
00000240: 42ae cc3f 230d 7cbe d720 f03f dfe2 4c3f
00000250: f95d 7b3f d659 883f 9744 9abf f79f cb3e
00000260: b8b4 a03e 7f06 913f 05fe ebbe 76e7 e93f
00000270: e354 4a40 2e8a 7a3e 178e fa3f 6563 0e40
00000280: 9eb8 9b3f 99b9 0c40 abeb 1840 44c1 da3f
00000290: c357 2d3e e455 a33c e5ff ac3f a292 b73f
000002a0: 1ba9 393f d708 d93e 8176 663e d355 2840
000002b0: e293 8e3f 8934 b03f f517 bd3f 1ebb a1bf
000002c0: 71c0 1f3f d49a 503e 6e79 81bf ee6a 57c0
000002d0: 6e43 cbbf 861e 14bf ec09 a3bf 269f b3bf
000002e0: 7dec 64c0 c74b 5ac0 fe56 c03f fa1b 003e
000002f0: 1098 70bf 0f15 69c0 5be2 74bf 82d5 0540
00000300: e63c c7bd cbc7 a2bf c6ec 133f f648 cdbf
00000310: 5adc ba3f 6daf 0a3f f4bf 8ebf 8309 e9bf
00000320: 7752 8dbf 0716 34bf fc27 7c3e 65d8 a7be
00000330: 10a8 fd3e 51af 9ebf 483f 293f eaaa c63e
00000340: ce49 fbbd bb25 eebc 8eea d3be 5d04 2f3f
00000350: 4b87 a6be b137 eebe 01aa bebe fe8e 60bf
00000360: 30cd 413d 870f 54bf de7d 6f3e 494e f7be
00000370: 02be 8bbd 5979 323e a01f 073e 9426 57bf
00000380: 3295 49bf 5b57 fd3e e9c4 41bf df69 3fbf
00000390: f81a 48bf 793c d5be e287 c83e 5abe 733f
000003a0: e9e9 073f b0e7 303f 00c2 2e3f 12e5 b9bf
000003b0: f721 923f 9eba 363f 11ac c73f e11a 383e
000003c0: d6a4 25bf 8341 b83f d170 253f 9430 c03e
000003d0: a32a db3e 2e7d 40bf a2c1 fdbe 6255 d73e
000003e0: 1398 2a3e 90a8 903d e219 74be df6b e4be
000003f0: 8e6f 1b3c 88aa 933f 1652 8dbe caf1 aabe
3.007861 2.462234 2.3785841 1.2023848 1.683224 3.2983432 3.4631014 2.556337
1.721317 2.1173165 2.4931989 3.1922903 1.9169331 1.9005342 1.9312683 2.551974
2.290372 2.0653222 2.0533466 0.4810779 2.5726397 1.5148096 1.8647686 2.0400724
1.12299 -1.3312726 -2.4104786 -0.4073937 -2.225168 -2.1655726 -0.9669168 -1.2711303
-1.1306803 -0.17731383 -0.59001595 -2.0131214 -1.7180055 -1.4791565 -0.7347223 -1.6280719
-1.2689987 -1.4992185 -1.5736476 0.29918277 -0.5350682 -0.3754147 -2.2322466 -1.4349535
-2.0607002 -1.2837894 -6.807589 -2.046358 1.2994941 2.1132512 2.431624 -4.0727086
0.1235637 -3.4370277 -1.8898737 -0.46073326 -0.18637395 -1.0985178 0.123865895 -0.36257136
1.6641577 -3.2889555 1.8339221 1.1838695 1.1394645 1.2399886 -5.246451 1.1055263
0.7337041 0.51776326 -2.084332 1.6455647 -0.09981495 1.5518968 0.36023727 0.65992284
2.2473543 0.4794512 0.74345905 1.0660802 1.6072159 1.8872697 -0.05237326 0.567196
0.05674374 0.8634707 1.5722203 -0.6077735 0.63978887 -0.33059272 0.23723657 1.3559996
0.28859395 0.70039666 0.30443013 1.4738256 -3.715082 1.3324281 1.2524462 0.8201947
-0.2527909 -0.38420862 0.9801788 -0.3324142 0.51159513 -1.2711374 -2.076993 1.8084939
1.8586056 1.4656649 0.03910616 -3.5456033 1.0207175 1.5181018 0.5287806 1.5503119
-2.6889935 0.17201012 -0.9972347 -1.5386589 -0.5328658 0.2883945 -1.0585462 -1.7748039
0.55259275 0.9437707 -1.8887029 -0.901341 -0.39885083 1.5501777 0.3739466 -1.3018754
1.4642868 2.7077403 0.95566094 0.97578293 -1.7136315 1.6237067 1.1040812 0.6373108
1.5990679 -0.24614386 1.8760022 0.8003368 0.98190266 1.0652416 -1.2052182 0.3977048
0.31387877 1.1330107 -0.4609224 1.8273761 3.161431 0.24466774 1.9574612 2.2248166
1.2165716 2.198828 2.389384 1.709023 0.1692801 0.019938417 1.3515593 1.4341624
0.7252366 0.42389557 0.22506143 2.6302383 1.113888 1.3766032 1.4772936 -1.2635229
0.6240302 0.20371562 -1.0115182 -3.3659015 -1.5879953 -0.57859075 -1.2737403 -1.4032943
-3.576934 -3.410875 1.5026548 0.12510672 -0.9398203 -3.6419103 -0.9565789 2.0911565
-0.09728412 -1.2717222 0.5778316 -1.6037891 1.4598496 0.5417393 -1.115233 -1.8206028
-1.1040791 -0.7034611 0.24624628 -0.32782283 0.49542284 -1.2397252 0.66112185 0.38802272
-0.122699365 -0.029070726 -0.4138989 0.6836603 -0.32525095 -0.46526864 -0.37239078 -0.8771819
0.047314823 -0.8283619 0.23387858 -0.48301914 -0.068233505 0.17429103 0.13195658 -0.8404324
-0.7874328 0.4948071 -0.75691086 -0.7477092 -0.7816615 -0.416477 0.3916617 0.9521233
0.53091294 0.6910353 0.6826477 -1.4523032 1.1416615 0.71378505 1.5599385 0.17979003
-0.64704645 1.4394993 0.6462527 0.37537062 0.42805967 -0.7519101 -0.49561793 0.4205733
0.16659574 0.07063401 -0.23837999 -0.4461355 0.009487046 1.1536417 -0.2760169 -0.33387595
