utils/benchmark-orientation/matlab/src/KeypointOrientations/GHHPoolingEF/prelearned/efsift-360/layer0_W.npy (npy, 1080 bytes, 1 tensors)

array f4 [10, 1, 5, 5]
00000000: f3ef a0be 59b0 973d 6202 46bd 59bd 553d
00000010: 9265 d5be 8dac 48be 0bad 5abe 1bf1 65be
00000020: de7b e1bd 02af f33d c3a3 4abe 6e88 aabd
00000030: 8374 d93d 24ea 27be 1ae5 0a3e cc80 783c
00000040: 4433 a0be 1a5a a53e ccd1 153e 8253 6dbe
00000050: 62a4 78bc 80f4 c53d 8d1f 7abe 2101 8abe
00000060: 6441 cfbd 8dba ba3f ccd4 c53f 5417 393f
00000070: 96b7 923e c186 4c40 33ef 03c0 c16d 583f
00000080: 55d9 e7be 5907 e8be 1b9f 923f 3c52 aebf
00000090: 587c c33f 2105 f73e bb09 dfbe bc6e d03e
000000a0: 04a0 3c3f 4006 1fbf f8b5 1a3e 06ae 20c0
000000b0: 0a41 b9bd 920c 103f 3426 c13e b578 453e
000000c0: 0354 463f 897b ea3f daab 1d40 70d3 0940
000000d0: faaa d73d 8da1 c4bc e099 f13f 7ec3 c13f
000000e0: 2ff8 75bf d0ea 12c0 25f0 35be 651e 393f
000000f0: 115f 353d 1a7e 40c0 c466 1bc0 7949 e53e
00000100: 5c55 a73f 8893 9b3f 174a 06bf 6e2f 85bd
00000110: bbd7 f43e 3195 ab3f c3be c73f cde4 933f
00000120: f3b7 0f3f 39fe 2bbf 7136 313f 2e60 11c0
00000130: 971d ffbf 3ccb debf 388d efbf c198 5abf
00000140: e235 75bf 2b38 c0be 05e9 d9bd 4c77 23bf
00000150: 842a 7fbf c027 85bf 582c 5cbf 8529 b1bf
00000160: e024 1fbf 5d4d 65bf 7380 f6bf 03f1 a0be
00000170: f4df c8bf 6e31 59bf 43e3 cabf bba8 d7bf
00000180: 85ed b9bf 5fca aabe 4a0f adbf e11d 94bf
00000190: 7aca a43f 615b 51bf eb08 5cbf 2e57 dabe
000001a0: 8cfe ccbf 6fc3 673f cf38 d4bf d73e 0d3f
000001b0: 8831 2ebf f6d6 a2bf d68b 6d3f 196f 8ebf
000001c0: 4e97 a3bf cfb9 f5be 41af 873e f5f0 223f
000001d0: 1eca 6b3c 0297 663f 6a62 e7be 803c 14be
000001e0: 79ee 5d40 dfa2 ef3e 3e7f 403f 4d1a bc3f
000001f0: 25ad 863f 8ed6 e33f ff53 e8be 02d9 683f
00000200: 7f12 b53e 34c1 cf3e 9149 463e 2bfe 743f
00000210: 4605 7e3f b21b 023f e4fe a8be d62e afbe
00000220: 9a83 8ebd d5b2 233f dbf8 8f3f 0de8 0b3f
00000230: f03d c83f ac54 1d3f 337e 8fbf 879d 1bbf
00000240: 30fa d63f fa5a 933f bf3e a03f 2089 2ebf
00000250: a848 ae3f dd0e 473e 3e17 3c3f 3b57 0e3f
00000260: 8fc8 853f 4e80 423f 4056 9e3f c1f3 d63e
00000270: 00e3 fdbe 6cad 0bbf f848 a0bd e496 cf3e
00000280: 836d 5fbc a314 8abe 5b2f 2e3e 140d e13c
00000290: 003e ad3e d458 1fbe da55 923e 336f 9fbe
000002a0: ed23 083e 5018 c73e d2ac b23d 7f5b d9be
000002b0: 7f1a 2c3e f280 31be ecb0 fd3e 48a8 b6bf
000002c0: 78e1 debe d9d9 f2be 3120 a13f e0d0 693f
000002d0: 7360 0340 d5a4 be3f a393 563e 6f03 5abf
000002e0: 13b8 163f 9409 f93f f592 283f 3c75 94be
000002f0: c050 e0bc 1656 d4bf cbfc e83f 17b8 98be
00000300: ecef 033f beb5 10c0 6423 bbbf fe3b ae3f
00000310: 0d7c 823f d7b4 0a3f ebc9 343e 0509 00bf
00000320: 531d 323f 9f36 eabe 1bda 82bd 4312 813e
00000330: 6d7d b43e 12fe 203e 71fe a03f 04c0 543e
00000340: 2b65 8fbd 7034 b33e a361 3fbe 4fac c83e
00000350: 9b4a 3f3e bef8 733e 7541 723f 932b f6bc
00000360: f08d 183f 964a 763f dcbf 3140 4330 8f3e
00000370: b7d5 f53e 72b6 cb3d faa1 ed3e 6adb bb3f
00000380: 11c7 8e3f fbb5 753f b5fa de3f 61eb b73f
00000390: 94c8 c33f 29e4 c9bd 1cea 6c3f 430a 8f3f
000003a0: 71cc f33f 35bd 233f 1117 353f bd09 823f
000003b0: 26ef 953f 6660 1e3f 3c12 6a3f d1fe 0d3f
000003c0: a253 b53f 1e83 963f 74ff 743f 5dff 9f3e
000003d0: f5ff fb39 797f 343e 4580 723d 6a36 a43e
000003e0: 31a9 9e3e 327a ed3e
-0.31433067 0.074066825 -0.048342116 0.05218253 -0.41679054 -0.19597073 -0.21355073 -0.22455256
-0.11009954 0.118986145 -0.19789033 -0.08326803 0.10617926 -0.16397911 0.13563958 0.015167426
-0.31289113 0.32295305 0.14630812 -0.23176387 -0.015175911 0.09665775 -0.24426098 -0.26953986
-0.10119894 1.4588181 1.5455565 0.7230122 0.2865569 3.1957247 -2.0614746 0.8454247
-0.45283 -0.45318106 1.1454805 -1.3618846 1.5272322 0.482461 -0.4356211 0.40709484
0.73681664 -0.6211891 0.15108478 -2.5106215 -0.09045608 0.5626918 0.3772446 0.19284327
0.7747194 1.831895 2.463614 2.1535301 0.10530658 -0.024002815 1.8875084 1.5137784
-0.96081823 -2.2955818 -0.17767389 0.72312003 0.044280116 -3.0076966 -2.4281473 0.44782618
1.3072925 1.2154398 -0.524568 -0.06503187 0.4782084 1.3404905 1.5605091 1.15542
0.5614006 -0.6718479 0.69223696 -2.2714953 -1.9930905 -1.7405772 -1.8714972 -0.85389334
-0.95785344 -0.37542853 -0.10640148 -0.6385391 -0.9967425 -1.0402756 -0.86005163 -1.3840796
-0.6216564 -0.8957117 -1.925795 -0.31433877 -1.5693345 -0.8484105 -1.5850605 -1.6848367
-1.452561 -0.33357522 -1.3520291 -1.1571618 1.2874291 -0.8178006 -0.8595111 -0.42644638
-1.6015182 0.90532583 -1.6579837 0.5517401 -0.6804433 -1.2721851 0.927915 -1.1127654
-1.278055 -0.47993323 0.26500896 0.6364892 0.01439145 0.9007417 -0.4519227 -0.14476204
3.4676802 0.46803948 0.75194156 1.4695526 1.052159 1.7799852 -0.45376584 0.9095613
0.35365674 0.4057709 0.19364001 0.9570033 0.99226797 0.5082351 -0.33006966 -0.3421542
-0.06958695 0.6394475 1.124782 0.54650956 1.5643902 0.61457324 -1.1210388 -0.6078724
1.6795101 1.1512139 1.2519149 -0.68177986 1.3615923 0.19439264 0.73472965 0.55601853
1.0451831 0.7597703 1.2370071 0.41982844 -0.4958725 -0.54561496 -0.07826418 0.40544808
-0.0136369495 -0.2696887 0.17010252 0.027472056 0.33836365 -0.15561229 0.28581125 -0.31139526
0.13294955 0.38885736 0.08724369 -0.42452618 0.16806982 -0.17334345 0.49549043 -1.4270105
-0.43531394 -0.4743183 1.2587949 0.9133434 2.0527618 1.4894053 0.20954756 -0.8516149
0.58874625 1.9456048 0.6584924 -0.28995693 -0.027382255 -1.6588771 1.8202146 -0.2982795
0.51537967 -2.2610927 -1.4620175 1.3612058 1.0194107 0.5418219 0.1765515 -0.5001376
0.69575995 -0.45744798 -0.063892566 0.25209245 0.35251942 0.1572192 1.2577649 0.20776373
-0.07001718 0.35000944 -0.18689589 0.3919396 0.18680803 0.23825356 0.9463113 -0.030050075
0.5959158 0.9620756 2.7773352 0.27966508 0.48014614 0.09946908 0.4641264 1.4676335
1.11545 0.95980805 1.742026 1.4368707 1.5295587 -0.09857971 0.9254472 1.1175007
1.9046766 0.6396058 0.7073832 1.0159222 1.1713607 0.6186584 0.91434073 0.55466944
1.4166148 1.1758764 0.9570229 0.31249514 0.00048065154 0.17626752 0.05920436 0.32072765
0.30988458 0.4638229
