utils/benchmark-orientation/matlab/src/KeypointOrientations/GHHPoolingEF/prelearned/efsift-360/layer3_W.npy (npy, 320080 bytes, 1 tensors)

array f4 [50, 100, 4, 4]
0	0xbf79489a	-0.97376406
1	0x3f92dbdd	1.1473347
2	0x3e28dcdd	0.16490503
3	0x3ff6d66f	1.928419
4	0x3ea835da	0.32853585
5	0x3fead365	1.8345762
6	0xbdff8e3c	-0.12478301
7	0x3d80a829	0.06282074
8	0x40a16dd8	5.0446587
9	0x3f18bcde	0.5966319
10	0xbee8c87c	-0.45465457
11	0xbf4625e8	-0.7740159
12	0x3f9910cc	1.1958251
13	0x3f053b72	0.5204383
14	0x401677ed	2.3510697
15	0xbf46db3d	-0.7767828
16	0xbe7835ec	-0.2423932
17	0x401bde03	2.4354255
18	0xbe8266d7	-0.25469086
19	0x3f021986	0.50820196
20	0xbe912433	-0.2834793
21	0x3fa8aacb	1.3177122
22	0x3ec46a96	0.3836257
23	0xbe40e40c	-0.18836993
24	0xbdf465fb	-0.11933514
25	0x3c9496b2	0.018138263
26	0xbeeee83e	-0.46661562
27	0x3f809d68	1.0048037
28	0x4076e119	3.8574889
29	0xbdb45f6e	-0.08807264
30	0xbe553ce0	-0.20824003
31	0xbdd16fc9	-0.102263995
32	0x40649b26	3.5719695
33	0x3f9859d3	1.1902412
34	0xbe18da61	-0.14927055
35	0x3e9e4786	0.30913943
36	0xbfa4d70c	-1.2878127
37	0x3ef1a214	0.47193968
38	0xbef2014c	-0.47266614
39	0x3f8543fe	1.0411375
40	0x3e0987c6	0.134307
41	0x40815b38	4.042385
42	0xbe5d4619	-0.21608771
43	0x40329f34	2.790967
44	0x3faf66f5	1.3703295
45	0xbe3ac368	-0.18238604
46	0xbed7dd02	-0.42160803
47	0x3def377c	0.11680505
48	0x4005d577	2.0911539
49	0xbe9ef7ff	-0.3104858
50	0xbd3c3dfe	-0.045957558
51	0x3edb9282	0.42885214
52	0xbf11089a	-0.5665375
53	0xc044d8ec	-3.0757399
54	0x40a283e4	5.0786
55	0x401e1985	2.4703076
56	0x40a37069	5.107472
57	0x3f89fd58	1.0780439
58	0x3e481697	0.19539867
59	0x3f85df10	1.0458698
60	0xbeb95261	-0.36195663
61	0x3e0db963	0.1384025
62	0x3fc5e265	1.5459715
63	0x40166251	2.3497508
64	0x3f9243f6	1.142699
65	0xbf791dcf	-0.9731111
66	0xbf355723	-0.70836085
67	0xbf28f296	-0.65995157
68	0xbf31f65e	-0.6951655
69	0x3fc3b029	1.5288135
70	0xbf2f37fb	-0.68444794
71	0xbceb5078	-0.028724894
72	0x3fe7bab0	1.8103848
73	0x407702bd	3.8595421
74	0x3fdc59aa	1.7214863
75	0x400111f8	2.0167217
76	0xbe9e45b1	-0.30912545
77	0x406ad3de	3.6691813
78	0xbf8f6043	-1.1201252
79	0xbe23f451	-0.16011168
80	0x4006935d	2.1027443
81	0x401f71e0	2.4913254
82	0xbed802cc	-0.42189634
83	0x3f1ee655	0.6207021
84	0xc0761af9	-3.8453963
85	0x4009c662	2.1527333
86	0x3eaf85e9	0.34281853
87	0xbef1d8bb	-0.47235665
88	0x3ffbc5b7	1.9669713
89	0xbe1a17c8	-0.15048134
90	0x401a92b7	2.4152048
91	0x3f163660	0.5867672
92	0x3e214535	0.15749057
93	0xbe189e59	-0.14904155
94	0x3e63b1d1	0.222358
95	0x3f22b8e8	0.63563395
96	0x405c663a	3.4437394
97	0x3e9eeb56	0.31038922
98	0xbf814457	-1.0098981
99	0xbf4dee46	-0.804417
100	0xbfa56428	-1.292119
101	0xbf689700	-0.9085541
102	0x40a21121	5.064591
103	0x3ef89a7d	0.48555365
104	0x402861f5	2.6309788
105	0x3f0c4708	0.54795885
106	0xbf81bfbf	-1.0136641
107	0xbee9bda0	-0.45652485
108	0x4068dd2c	3.6384993
109	0xbf35da54	-0.7103627
110	0xbf7cf6eb	-0.98814267
111	0x4044635b	3.0685642
112	0xbf1278d2	-0.5721561
113	0x40882645	4.2546716
114	0x3f4ff0ec	0.8122699
115	0x3e2f600b	0.17126481
116	0x3e1ea2dd	0.15491815
117	0x3eac9d7e	0.33713907
118	0x4069aba8	3.651102
119	0xbeca385d	-0.39496127
120	0xbe3a7980	-0.18210411
121	0x3f8e550a	1.1119702
122	0x40068be4	2.1022882
123	0x3e3992cb	0.18122403
124	0x3fb9a8db	1.4504656
125	0x4000deea	2.0136056
126	0x3f13bb72	0.57707894
127	0x3c3d8255	0.011566718
128	0xbc43e666	-0.011956787
129	0x3ec80e54	0.39073431
130	0x3f96dd03	1.1786197
131	0x404f9164	3.243249
132	0xbf69a1ac	-0.91262317
133	0x3fa0e219	1.2569
134	0x40578d38	3.3679943
135	0x3dd865f3	0.1056632
136	0x3f4e01df	0.80471605
137	0xbebed271	-0.3726993
138	0xbee7dbd9	-0.45284918
139	0x3fed40db	1.8535417
140	0xbc518c5d	-0.012789813
141	0x3db3cf9f	0.08779835
142	0xbe2ad690	-0.16683412
143	0xbc755535	-0.014973928
144	0x3f4ad63e	0.7923316
145	0xbd8a0cde	-0.067407355
146	0x407da019	3.9628966
147	0x3f07507e	0.52857196
148	0xc004d110	-2.0752602
149	0x3f5e3c97	0.868112
150	0x40a557d6	5.166972
151	0xbfa69cb2	-1.301657
152	0x3fc3afeb	1.5288061
153	0x3eb073e1	0.3446341
154	0xbeab43aa	-0.3345006
155	0x3ff60efb	1.9223322
156	0x3fba9f24	1.4579816
157	0x3e0b61ef	0.13611577
158	0x3e03612d	0.12830038
159	0x40089416	2.1340384
160	0x3fa9664e	1.3234346
161	0xbdb852a3	-0.09000137
162	0xbefe267a	-0.4963873
163	0x3e686405	0.22694404
164	0x40174306	2.3634658
165	0x3e9225f0	0.2854457
166	0x3f7cfdb6	0.9882463
167	0x404ecee0	3.2313766
168	0x3eed7318	0.46376872
169	0x3f881d0f	1.0633868
170	0x3f119788	0.56871843
171	0x3fb84fb3	1.4399322
172	0x406c246f	3.6897237
173	0x402305cd	2.547229
174	0x3eae107e	0.33996958
175	0xbdcbe810	-0.09956372
176	0xbf4695ff	-0.77572626
177	0x404f1e08	3.236208
178	0xbec5449b	-0.38528904
179	0x3fa4b67b	1.2868189
180	0x3fd117fe	1.6335447
181	0xbf155233	-0.5832855
182	0xbfceba94	-1.6150689
183	0x3e73c3b7	0.23805128
184	0xbedfa052	-0.43677002
185	0xbef5a206	-0.47975177
186	0x403441b7	2.816511
187	0xbe6c7403	-0.2309113
188	0x3e0f7ac3	0.14011674
189	0x3f33e1c1	0.7026635
190	0x4092b352	4.5843897
191	0x3fb3013d	1.3984753
192	0x3e5f047c	0.21779054
193	0x3f5fa3f1	0.8735953
194	0x3e4b3f4d	0.19848366
195	0x3ff75225	1.9321944
196	0x405bdda2	3.4354024
197	0xbf43327e	-0.7624892
198	0xbf02678c	-0.5093925
199	0xbf74600a	-0.95459044
200	0x3f66b575	0.9012063
201	0xbeb9067e	-0.36137766
202	0x3d7fd96d	0.062463213
203	0xbf17022b	-0.58987683
204	0x40358ee2	2.8368459
205	0xbeefcb42	-0.4683476
206	0xc008932a	-2.1339822
207	0x3f11e209	0.5698553
208	0x40a0b959	5.0226254
209	0x3f88ad74	1.0677934
210	0xbf1ea780	-0.61974335
211	0x3f80cb75	1.006209
212	0x3fb64041	1.4238359
213	0xbe1b8bae	-0.15190002
214	0x3eb7a3af	0.35867068
215	0xbf38ebdd	-0.722349
216	0x3fc30c14	1.5238061
217	0x3ebdd2aa	0.37074786
218	0x400bb923	2.1831748
219	0xbf6c1149	-0.92213875
220	0xbdc0cfff	-0.09414672
221	0x401ac808	2.418459
222	0x3daf7672	0.085675135
223	0x3f761584	0.9612658
224	0x3e9d227b	0.3069037
225	0xbef52336	-0.47878426
226	0x404121c1	3.0176852
227	0xbcd3c36f	-0.025850026
228	0x3f9f5b59	1.2449752
229	0xbf0f7e35	-0.5605195
230	0xbdb0980c	-0.08622751
231	0xbf170c57	-0.59003204
232	0xbf2f7c4c	-0.68549037
233	0x4010ac9d	2.2605355
234	0x3f9c32bd	1.2202984
235	0xbe1ee1fc	-0.15515894
236	0x401f1e68	2.4862309
237	0xbeac5d8e	-0.33665127
238	0xbfb7fd93	-1.437426
239	0x40540e75	3.3133824
240	0x3e871ea5	0.26390567
241	0x3ed21c67	0.41037294
242	0x3eaececc	0.34142148
243	0x3f40aeae	0.7526654
244	0x3ed8e801	0.42364505
245	0x3f2f5987	0.6849598
246	0xbd9b2025	-0.075744905
247	0x4030e224	2.7638025
248	0xbf071760	-0.5277004
249	0xbeb62a59	-0.35579184
250	0x3fbefd14	1.4920983
251	0x3e84f327	0.2596676
252	0xbe7925b8	-0.24330795
253	0xbf500ca4	-0.8126929
254	0x3eb30ed8	0.34972262
255	0x40493c4b	3.144305
