utils/benchmark-orientation/matlab/src/KeypointOrientations/GHHPoolingEF/prelearned/efsift-360/layer4_W.npy (npy, 12880 bytes, 1 tensors)

array f4 [100, 2, 4, 4]
0	0xc07687b5	-3.852033
1	0xbd1490e9	-0.03627101
2	0x3ff2ac11	1.895876
3	0x3fd7b5bc	1.6852336
4	0x3e807714	0.2509085
5	0xbfad261b	-1.3527254
6	0x3e3b9ad4	0.18320781
7	0x3f325cf4	0.69673085
8	0x3e1f40ab	0.15552013
9	0x3ee10810	0.43951464
10	0xbf2bfbbd	-0.67181
11	0x3dd998ba	0.106248334
12	0xc0660a96	-3.594396
13	0x4011547f	2.2707822
14	0x3e49eeac	0.19719952
15	0xbdb98e02	-0.09060289
16	0xc0a41eb0	-5.128746
17	0x3ffab8a4	1.9587598
18	0x4006f5f7	2.1087625
19	0x401055fc	2.255248
20	0x3f7131c0	0.9421654
21	0xc0b05b31	-5.511132
22	0xbebb8e82	-0.36632162
23	0x3f886d6d	1.0658394
24	0x3fd2f974	1.6482377
25	0x3fff70d5	1.9956309
26	0x3f9ab04a	1.2085049
27	0xbf17dfc3	-0.5932581
28	0x3fa5d4fc	1.2955623
29	0xc05bc8bf	-3.4341276
30	0x405beabf	3.4362028
31	0xc00309d4	-2.0474749
32	0xbff5d4c8	-1.9205561
33	0x3fd094a4	1.6295362
34	0xbe6f7cd5	-0.23387463
35	0xbf98a0c2	-1.1924059
36	0x3fb6af66	1.4272277
37	0xc008d667	-2.138086
38	0x40961fed	4.691397
39	0xc028ab01	-2.6354373
40	0xbfc3c21f	-1.5293616
41	0x3ffb5424	1.9635053
42	0xbfc0cd50	-1.5062656
43	0xbff1ca7a	-1.8889916
44	0x3eb41573	0.35172614
45	0xbe5fe9d4	-0.21866542
46	0x3f887601	1.0661012
47	0x3d8e4b46	0.06947951
48	0xbfa24105	-1.2676092
49	0x3f9a40dc	1.2051044
50	0x3f2d9c7f	0.6781692
51	0xbdd3d78d	-0.103438474
52	0xbf2a0dcb	-0.66427296
53	0x3f3d9671	0.7405768
54	0x3f7796b8	0.96714354
55	0xbf583b5d	-0.8446558
56	0x4009d8ef	2.1538656
57	0xbfa9ba7e	-1.3260038
58	0xbdae082f	-0.08497655
59	0x3f54d6c9	0.83140236
60	0xbc886304	-0.016648777
61	0xc05d2a33	-3.4557006
62	0x3f9f39a7	1.2439469
63	0x4020e51c	2.5139837
64	0x401c988d	2.446811
65	0xc0a6c342	-5.211335
66	0x3fd7e59f	1.686695
67	0x40014354	2.0197344
68	0x3fa30c44	1.2738118
69	0x3fa7e86b	1.3117803
70	0x3fc6f308	1.5542917
71	0x3f9b96b4	1.2155366
72	0x3f90be78	1.1308126
73	0x3e5f3f23	0.21801428
74	0x3fcff1ef	1.6245707
75	0x3ff298c1	1.8952867
76	0x3fa3991c	1.27811
77	0x40123d6c	2.284999
78	0xc0bc9622	-5.8933268
79	0x3ffca604	1.9738164
80	0xbfd94b41	-1.6976091
81	0xbe702c78	-0.23454463
82	0x3fcb289e	1.587177
83	0xbecf8196	-0.40528554
84	0x3ef8ea9f	0.48616502
85	0x3fbaee49	1.4603969
86	0x400f466b	2.238673
87	0x401865f6	2.3812232
88	0x3e5eb789	0.217497
89	0x3eea7fc6	0.45800608
90	0xbfffdd89	-1.9989482
91	0xbf62178e	-0.8831719
92	0xbe8d6178	-0.27613425
93	0x3fc93aa1	1.5721017
94	0x3eb4b16a	0.35291606
95	0x3f0c796d	0.5487278
96	0xbe6547fc	-0.22390741
97	0xbf077739	-0.52916294
98	0xbf64a2cb	-0.893109
99	0xbfa0e13a	-1.2568734
100	0xbfc55bd1	-1.5418645
101	0xbed04e1a	-0.40684587
102	0xc02f01c3	-2.7344825
103	0xbebed1ed	-0.37269536
104	0xbff266f3	-1.8937668
105	0xbff606ef	-1.9220866
106	0x40836884	4.1065083
107	0x4041b207	3.026491
108	0xbf999cce	-1.2000978
109	0xc04138b0	-3.019085
110	0x40bc2cc6	5.8804655
111	0xc050ddf6	-3.2635474
112	0x3f27aa45	0.65494186
113	0xbfa26a94	-1.2688775
114	0x3ef31be3	0.47482213
115	0x3ed7d4c1	0.42154506
116	0x3f1f72f9	0.6228481
117	0x3ff0e67f	1.8820342
118	0x4011c285	2.2774975
119	0xc01d0667	-2.4535158
120	0xbfb41f1c	-1.4071994
121	0xc0344738	-2.8168468
122	0xbfda1952	-1.7038977
123	0x4041eca0	3.0300674
124	0x3fa67edc	1.3007464
125	0x3e1d1a81	0.15342142
126	0xc02bf504	-2.6868296
127	0xc00be11c	-2.1856146
128	0xc0098234	-2.148572
129	0x3eae9309	0.34096554
130	0x3fcf3db7	1.6190709
131	0xc01506a0	-2.3285294
132	0x40138fa3	2.305642
133	0xbf46e150	-0.7768755
134	0x403b62d8	2.927908
135	0x3e93297d	0.2874259
136	0x3e0079f0	0.12546515
137	0x3dfe6b3f	0.12422799
138	0xbfb1bf62	-1.388653
139	0xc081afb3	-4.0526977
140	0x3e7b9eb1	0.24572255
141	0x3ee47a03	0.44624338
142	0xbfcc5d4d	-1.5965973
143	0xbd44342e	-0.047901325
144	0x3fe33ba8	1.7752581
145	0x3f44cf7f	0.76879114
146	0xc0307497	-2.757116
147	0xbf8142a8	-1.0098467
148	0xbf9f1f59	-1.2431442
149	0xbfa1e94d	-1.2649323
150	0xc00e58fb	-2.224181
151	0xbfbc4485	-1.470841
152	0x401f9e8d	2.4940522
153	0x3fdb4228	1.7129564
154	0x3d36b805	0.04460909
155	0xc040e936	-3.014234
156	0xc070001a	-3.7500062
157	0xc0886e0b	-4.263433
158	0x408a9f8c	4.331976
159	0x3f189f7f	0.5961837
160	0x3f059a46	0.5218853
161	0xc043bc5f	-3.0583723
162	0x3f5bee06	0.8591007
163	0x3ed8cda3	0.42344388
164	0x4018b77a	2.3861985
165	0x3f82c550	1.0216465
166	0xbe1f650d	-0.15565892
167	0x3fb2177c	1.3913417
168	0x3ea4d8cb	0.3219665
169	0xbd8330c6	-0.06405787
170	0x3d9f80d5	0.07788245
171	0xc070551f	-3.7551954
172	0x3ed25c68	0.41086125
173	0xbef74ed9	-0.48302343
174	0x4004bed8	2.0741482
175	0xbf45b082	-0.77222455
176	0x4028bf1e	2.6366649
177	0xc002c1c8	-2.0430775
178	0xbf6f1c42	-0.93402493
179	0x3eb8efe4	0.36120522
180	0xbfbf485a	-1.4943955
181	0x3f1e5bb3	0.6185867
182	0xbfd7a9d7	-1.6848706
183	0xbdc2429f	-0.09485363
184	0xbedcd5ff	-0.43132016
185	0xbfc3c789	-1.5295268
186	0xbf84c29c	-1.037189
187	0x3eba8551	0.36429837
188	0x3e96a926	0.29425925
189	0xbf7e4016	-0.9931654
190	0x3ec6311d	0.38709345
191	0xc0215361	-2.520714
192	0x3f578d07	0.84199566
193	0x405a8470	3.4143333
194	0x3dcc4726	0.09974508
195	0xbf24fe78	-0.6445079
196	0xc00e4cae	-2.2234302
197	0x401de299	2.4669554
198	0xc042fcf8	-3.04669
199	0xbfe39f97	-1.7783078
200	0xc03e76a3	-2.975991
201	0x409928d9	4.7862363
202	0x40cdc26c	6.429983
203	0x410bc6d9	8.736047
204	0xc0099b1b	-2.150092
205	0xbff13449	-1.8844081
206	0xbfdf37a3	-1.7438854
207	0xc012ee46	-2.295793
208	0xc011dbe4	-2.279046
209	0x409855bf	4.760467
210	0xbfad5fa7	-1.3544816
211	0xc00e9a73	-2.2281768
212	0xbf82fb52	-1.0232947
213	0x3f8f65a7	1.1202897
214	0xbd823ce1	-0.06359268
215	0xbfdfe168	-1.7490664
216	0x3fc2244b	1.5167326
217	0xc00220a4	-2.0332422
218	0x3f0018c8	0.50037813
219	0xbff9c067	-1.9511842
220	0x3fa0278d	1.251207
221	0x400b1459	2.173117
222	0xc0367c84	-2.8513498
223	0xc0282f3d	-2.6278832
224	0x401b4e14	2.4266405
225	0xc01d1c05	-2.4548352
226	0xbf987e2e	-1.1913507
227	0x3faabdaf	1.3339137
228	0x3f2e63e9	0.681212
229	0x3ec5b085	0.38611236
230	0x3f96a259	1.1768295
231	0x3efa2f4d	0.48864213
232	0x3fb3b0bb	1.4038309
233	0xbfa44c0d	-1.2835709
234	0x400249d5	2.0357563
235	0xbfe63aa1	-1.7986642
236	0xc01758ce	-2.3647952
237	0x40523a53	3.2848098
238	0xc0089c14	-2.1345263
239	0x4005a3fc	2.0881338
240	0xc059bfa2	-3.4023213
241	0xc0013270	-2.0187035
242	0x3f81fc64	1.0155149
243	0xbfaf3172	-1.3686965
244	0xc0314173	-2.7696197
245	0x40cc0761	6.3759007
246	0xc01b2dc2	-2.4246678
247	0x4097eb0b	4.747442
248	0xc08cb11e	-4.3966208
249	0x3fa5b1c8	1.294488
250	0xbff85fe9	-1.940427
251	0xbfb8e638	-1.4445257
252	0x3f9e483b	1.2365793
253	0x405251ea	3.2862496
254	0x3db984a7	0.090585046
255	0xbef756b9	-0.48308352
