utils/benchmark-orientation/matlab/src/KeypointOrientations/GHHPoolingEF/prelearned/efsift-360/layer3_b.npy (npy, 6480 bytes, 1 tensors)

array f4 [100, 4, 4]
00000000: b15b a13f 356a 83bf f248 f5bd 1c93 013f
00000010: 9ce2 8dbe f4c7 ad3f ab1c 0fbe 7c6c 94bd
00000020: 54b4 1740 5ff4 69be c0de 603f 9776 90bf
00000030: 435b 21bf 1652 04be e751 a640 69cd 1fbe
00000040: 8005 91be 9af3 993f 5865 a13f 5178 5740
00000050: 7f96 4dbe 8447 e6bf d03a f23f 8a2a 80bd
00000060: 4826 00be 4b8f b1be 7062 ae3f 318c bf3f
00000070: 576c 5840 79c5 03c0 b203 a2bd 2cd0 6ebe
00000080: 89d4 bfbe 3b23 ec3f 3650 26bd ea81 5abe
00000090: 0d3f dd3f e8b7 b9bc 309c 34bd 555a b83f
000000a0: 3974 84bd ecc0 f53f 987a 4abf a94b 0440
000000b0: ac20 0b40 cdb0 57bc 911b 9c3f 0b39 4ebd
000000c0: b160 c93f df8e b03c 964f 233d eeac 0e3f
000000d0: e35e 86bd a22c 113f 1613 5c40 5854 8f3f
000000e0: 1e5e 34bf bf13 d4ba 138d 3140 2636 113f
000000f0: cf8d 3dbe c03b 32be c385 33bd c879 a83f
00000100: bd45 863f 0457 263e e3cb 5a3f 53df c1be
00000110: 7a48 443e 3a1e d83f 423c f53d 3cfa 3cbe
00000120: 98ae 2b40 f53e 0c40 7241 5b3f d1a8 4b40
00000130: fbba b1bd ac7b 1940 1f79 2abf ea5a b8be
00000140: 801c d6bd a7d3 7c40 f2e4 a5be 51ba 153d
00000150: a1bf 1940 af19 133f 7cf2 a1bd dc09 8e3d
00000160: 8467 2f40 f805 67be c866 9cbf ae7a 9fbe
00000170: df4d 8ebe 8ec9 cb3f 079c 0dbd 1562 65be
00000180: 2ade e03f be00 cdbd 4670 9f3f 6f52 72be
00000190: 307f 3a40 db05 fa3e 9f77 ff3e 9f6c 23be
000001a0: 2453 483f fc61 6ebe 3ef3 81be a82d df3f
000001b0: 6f62 17be e4bd 36be b34c 3640 61fc a83f
000001c0: 2655 a4bd 5f25 3f3f 5cd5 0d40 2035 bb3e
000001d0: b5d0 a6be f794 9ebe f533 cc3f 101a 3040
000001e0: 8dbd 26be 41ca 813f 7bc3 1e3e bd20 c93d
000001f0: df1f 803f 6cf1 1240 5044 7540 ff54 a6bd
00000200: 43ee ac3e 5d2f 0a40 efe3 02bf fe9c de3f
00000210: b718 90be 22c0 723e d720 6e40 f56e b3bd
00000220: 49ca c0bf 1659 26be fd1a a9bd e0ba 5240
00000230: 6caf 8abe 7276 08bd 6485 dfbd 8982 0240
00000240: 83a1 3fbe 439c 0441 5840 4ac0 076b 03be
00000250: f257 9f3e 394e 723d 6d86 293f 55ae ae3f
00000260: da42 6ac0 6a56 54ba d950 243e 6106 6540
00000270: 2ea4 3c40 1ef0 e4bc 9c00 e8bf 408a 1340
00000280: 474a e33f 3860 903f b135 2fbd 15cb 0fbd
00000290: 3f90 8b3f 23e0 2ebe 455b 2b40 e0a2 ed3f
000002a0: 82dd 703e 2355 d73f 3615 ed3f a117 423e
000002b0: 727e 5c3e 843e 1140 8813 4abe 7f19 0140
000002c0: 111d a0b8 14bd 2940 e2c2 7ebe 5b57 fd3f
000002d0: 90c7 103e 1f41 fbbe 573d 17bf 35ec b8be
000002e0: c8ad 26be 496f e83f 1f03 19bf 51ff 2dbd
000002f0: 31bc c4be 23de 09be 4bc4 b33f 4278 7f3f
00000300: f12c 12bf 6171 813f 46a7 94be eb72 60bf
00000310: 6da4 b63f 850d 0440 6f72 0bbe 1740 0340
00000320: 69ba 7abf 35ef 913d d95c 15bd 31a3 263f
00000330: 2f5e 0f40 40f2 4bbd 4b1c 3a40 8137 38bf
00000340: 59b7 7fbe 60d0 ba3f 4bf3 e03b fa7b 6a40
00000350: f4ad 143f e00a 89be 8ba6 c83f cc77 86be
00000360: cd42 b33f dea3 053e 0e22 503f f74d 4a40
00000370: 61c6 993e e7e7 2740 eeb4 b83f 8ecc b13d
00000380: 5b32 3740 6054 e9bd a3f6 1e40 38c4 663d
00000390: 17bf 0a3f 5227 5cbc a4b1 debc 9f71 15bf
000003a0: 38bd 79bd 82fb 0d40 d37d 1840 8c35 60bd
000003b0: a6f7 833f 2a3a 70bd 8617 1bbe 2e7d 813f
000003c0: 32ae e23f d6fe 83be 6ac8 89be 7e1d 0ebf
000003d0: 42aa e23d 1e41 523f 39c4 81bd 0eda 2d40
000003e0: 766f bdbd 18c3 07be d2f9 8dbf 3601 2240
000003f0: 4cab 4fbd 2624 e83e 4927 10be 6cf0 2440
1.2606107 -1.0266787 -0.11976804 0.50615096 -0.27711952 1.3576646 -0.1397578 -0.07247254
2.3703814 -0.22847126 0.8783989 -1.1286191 -0.6302988 -0.12921938 5.197498 -0.15605702
-0.2832451 1.2027466 1.2609053 3.3667185 -0.20076941 -1.7990575 1.8924198 -0.06258114
-0.12514603 -0.34679636 1.3623791 1.4964658 3.3816125 -2.0589278 -0.07910861 -0.23321599
-0.3746684 1.8448251 -0.04060384 -0.21338621 1.7284867 -0.022670701 -0.044094265 1.4402567
-0.0646748 1.91995 -0.79093313 2.067118 2.1738691 -0.013164711 1.2195913 -0.05034737
1.5732633 0.021552501 0.03987082 0.5573262 -0.06561067 0.5670873 3.438665 1.1197615
-0.7045611 -0.0016180201 2.7742355 0.5672325 -0.18511127 -0.17405605 -0.043828737 1.3162165
1.0490032 0.16244131 0.85467356 -0.37865695 0.19168273 1.6884224 0.11974384 -0.18454832
2.6825314 2.1913426 0.85646737 3.1821787 -0.08678242 2.3981733 -0.66591066 -0.36006862
-0.10454655 3.9504182 -0.32401234 0.03655464 2.402321 0.57461065 -0.07907578 0.06935474
2.740693 -0.2256087 -1.2218866 -0.31148285 -0.27793786 1.5920885 -0.034572627 -0.22400697
1.7567799 -0.10009907 1.2456138 -0.23664258 2.914013 0.48832592 0.4989595 -0.15959404
0.7825186 -0.23279566 -0.25380892 1.7435808 -0.14783643 -0.17845875 2.8484313 1.320202
-0.08024053 0.746664 2.2161474 0.3656397 -0.32581106 -0.30973026 1.5953356 2.7515907
-0.16283245 1.0139848 0.15504257 0.098206975 1.0009726 2.2959852 3.8322945 -0.081216805
0.3377553 2.1591408 -0.5112905 1.739166 -0.28143856 0.23706105 3.7207544 -0.08761398
-1.5061733 -0.16244921 -0.08257101 3.292656 -0.2708696 -0.033316083 -0.10914114 2.0392172
-0.18713956 8.28815 -3.1601772 -0.12833796 0.31121784 0.05915663 0.6622074 1.3646952
-3.6603303 -0.0008100035 0.16046466 3.5785143 2.9475207 -0.027946528 -1.8125186 2.305313
1.7757043 1.1279364 -0.042775813 -0.035105783 1.0903395 -0.17077689 2.6774457 1.856533
0.23521999 1.6822857 1.8522098 0.18954326 0.2153261 2.2694407 -0.19734013 2.0171812
-7.6348086e-05 2.6521654 -0.2487903 1.9792284 0.14138627 -0.4907312 -0.5907797 -0.36117712
-0.1627723 1.8158962 -0.5977039 -0.042479817 -0.3842483 -0.13463645 1.4044279 0.99792874
-0.57099825 1.0112725 -0.2903387 -0.8767535 1.4268929 2.0633252 -0.13617872 2.0507867
-0.9794069 0.07125703 -0.0364655 0.6509276 2.2401235 -0.049791574 2.9079769 -0.7195969
-0.24972285 1.4594841 0.0068649403 3.663817 0.5807793 -0.2676611 1.5675825 -0.26263273
1.4004761 0.13050792 0.81301963 3.1610086 0.30034164 2.6235292 1.4430215 0.08681594
2.8624485 -0.113930464 2.4838035 0.056339473 0.5419783 -0.013437109 -0.027184315 -0.583765
-0.06097147 2.2184758 2.3826797 -0.054738566 1.0309951 -0.05864922 -0.15145692 1.0116327
1.770941 -0.25780362 -0.26910716 -0.5551375 0.1106763 0.8213061 -0.063362546 2.716434
-0.09249775 -0.13258016 -1.1091864 2.531324 -0.05070047 0.4534008 -0.14077486 2.5771742
