utils/benchmark-orientation/matlab/src/KeypointOrientations/GHHPoolingEF/prelearned/efsift-360/layer2_W.npy (npy, 36080 bytes, 1 tensors)

array f4 [50, 20, 3, 3]
0	0x3eac427a	0.33644468
1	0x3fc09617	1.5045804
2	0x3f771aca	0.9652525
3	0xbf2d7ab0	-0.6776533
4	0x3fc4cc38	1.5374823
5	0xbe7d9ff7	-0.24768053
6	0xbff78def	-1.934019
7	0xbe8cc937	-0.27497265
8	0x3e4dd4db	0.20100729
9	0x3d94acd4	0.07259527
10	0x3ec222b7	0.3791711
11	0x3fc99fba	1.575187
12	0xbf587489	-0.8455282
13	0xbe3e665c	-0.18593735
14	0x3f2c0d73	0.6720802
15	0x3f118bf2	0.56854165
16	0xbd14f8c7	-0.036370065
17	0xbf0973d2	-0.5369235
18	0xbf51db4e	-0.8197526
19	0xbf4f21fa	-0.8091122
20	0xc0280875	-2.6255162
21	0x3ed60c58	0.41806293
22	0xbfb3eb25	-1.4056135
23	0xc01e182c	-2.4702253
24	0x40648307	3.5704973
25	0x4033c590	2.8089333
26	0x3f18db54	0.5970967
27	0xc01f4080	-2.4883118
28	0xc021c1bc	-2.5274496
29	0xc00d07aa	-2.2035928
30	0xbfd1fc7a	-1.6405175
31	0xc03ce30e	-2.9513583
32	0xbfd31028	-1.6489305
33	0xbff2e04f	-1.8974704
34	0xbfb54b40	-1.416359
35	0xc02038e4	-2.5034723
36	0x3f51cbdc	0.8195169
37	0xbf93a083	-1.1533359
38	0xbfc7645b	-1.5577501
39	0x3e8606a2	0.26176935
40	0x3fc19dc3	1.512627
41	0xbe8a7ff6	-0.2705075
42	0xc04d34e1	-3.2063525
43	0xc014a747	-2.3227098
44	0xbebc5550	-0.36783838
45	0x3f8804a1	1.0626413
46	0x3e70f941	0.23532583
47	0x3e99131d	0.29897395
48	0xbf9c7f19	-1.2226287
49	0xbfd7ef2e	-1.6869867
50	0x3f99c3e5	1.2012907
51	0xc012f9a7	-2.2964876
52	0xbf8e0a6d	-1.1096932
53	0xbf197693	-0.59946555
54	0xbf37eb43	-0.71843356
55	0x3ef21db9	0.47288302
56	0x3f93e8c8	1.1555414
57	0x3de904bf	0.11377858
58	0xbf18c9e2	-0.5968305
59	0xbff167b8	-1.8859777
60	0x403555d8	2.8333645
61	0x4056bd2c	3.3552961
62	0x400637ee	2.0971637
63	0x3d97c784	0.074111015
64	0xbf889d61	-1.0673028
65	0xbea5071f	-0.32231995
66	0xbfa612e8	-1.297452
67	0xbe91fd41	-0.2851353
68	0xbfc25ae9	-1.5183994
69	0x401c8c21	2.4460528
70	0x3ec54de9	0.38536003
71	0x3f0416b0	0.5159712
72	0xbcedf085	-0.029045353
73	0x3fbb602d	1.4638726
74	0x40a5e80b	5.1845756
75	0x3e887051	0.2664819
76	0xbf2befb7	-0.6716265
77	0xbfa8bd53	-1.3182777
78	0x409fd734	4.99502
79	0x400f5df8	2.2401104
80	0x3fd345b7	1.650565
81	0xbeb5a607	-0.3547823
82	0x3fe40c3b	1.7816232
83	0x3eb16f81	0.34655383
84	0xbf75bafd	-0.95988446
85	0x40130ffb	2.2978504
86	0xbc885a13	-0.016644513
87	0xc0661d0a	-3.5955224
88	0x3e6cb4d8	0.23115861
89	0xbf59ca8f	-0.85074705
90	0xbfa4c3fa	-1.2872307
91	0x3fd41b27	1.6570786
92	0x405c192d	3.4390366
93	0xbf70f0e2	-0.9411756
94	0xbfd0004e	-1.6250093
95	0xbf2f1879	-0.6839672
96	0x3ee12cad	0.43979397
97	0xbf4a281a	-0.7896744
98	0x40213da4	2.5193872
99	0x3f439ee6	0.76414335
100	0xc04a9e13	-3.165898
101	0xbfc3a31d	-1.5284153
102	0x3f34e601	0.7066346
103	0xbfbb62f7	-1.4639577
104	0x3f5676d6	0.8377508
105	0x4089518d	4.291205
106	0x402f786d	2.7417252
107	0x400c23d8	2.1896877
108	0x3f8e079c	1.1096072
109	0xbfd4c7e2	-1.6623499
110	0xbfd0b964	-1.6306577
111	0x401bd52b	2.4348857
112	0xbf576770	-0.8414221
113	0xbf85ad01	-1.0443422
114	0x400e53be	2.2238612
115	0x3fe0efc8	1.7573175
116	0x4034ad79	2.823088
117	0x3f9a3d18	1.2049894
118	0x3bd5f6fb	0.0065296865
119	0xbf3d012d	-0.7382992
120	0x401f2abb	2.486983
121	0x3f656e95	0.8962186
122	0xc00d9705	-2.2123425
123	0xbdb08cf3	-0.08620634
124	0x3ff3af8e	1.903795
125	0xbe86e076	-0.26343125
126	0xc002581a	-2.0366273
127	0xbef8487f	-0.4849281
128	0xbfcc49b3	-1.5959991
129	0xbfca1a9d	-1.5789372
130	0xbebf507c	-0.37366092
131	0xbf5a67df	-0.85314745
132	0xc0234236	-2.5509162
133	0xc032507b	-2.7861621
134	0xc03121da	-2.7676911
135	0x3fd3a845	1.6535727
136	0x3dbb903f	0.09158372
137	0xbfe6913d	-1.8013073
138	0x400140a5	2.0195706
139	0x3f93d3ef	1.1549052
140	0xbfc04367	-1.502057
141	0x3fbe2262	1.4854243
142	0x3edbd2c3	0.42934236
143	0x3f1c605d	0.6108454
144	0x3fa6468a	1.2990277
145	0x3f8a56d4	1.0807748
146	0x3f7ed270	0.9953985
147	0xbc7879a2	-0.015165718
148	0xbe248a47	-0.16068374
149	0x3f898ea4	1.0746655
150	0xbfb39f9f	-1.4033087
151	0xbf8e6a56	-1.1126201
152	0x3fa1542c	1.2603812
153	0x3efd67cf	0.49493262
154	0x400d94c2	2.2122045
155	0x402b42a0	2.6759415
156	0xbfae3e8a	-1.3612835
157	0x3e0a5417	0.1350864
158	0x401be27e	2.435699
159	0xbfe22496	-1.7667415
160	0x3f9926bb	1.1964945
161	0x3fddfb9d	1.7342411
162	0x3ea23c26	0.31686515
163	0xbec10d0c	-0.37705266
164	0xbfc8cbea	-1.568723
165	0x3ef3606f	0.4753451
166	0x3efb6a99	0.49104765
167	0x3d552051	0.052032772
168	0x3f97721e	1.1831701
169	0x3f36903e	0.71313846
170	0x3d5e7a46	0.054315828
171	0x3e9b4639	0.30327013
172	0xbd41e594	-0.047338083
173	0xc02e70a8	-2.725626
174	0xbc2484e6	-0.010041451
175	0x3f92b5dd	1.146175
176	0xbf36228e	-0.71146476
177	0xbe87158c	-0.26383626
178	0x3fadb41f	1.3570594
179	0xc02b8a98	-2.680334
180	0x4068cb36	3.637403
181	0x400e3d2d	2.2224839
182	0x3ffe9f53	1.9892372
183	0x400368c2	2.053269
184	0xbf43b2b2	-0.7644454
185	0x3f184ede	0.5949534
186	0xbd3945b9	-0.04523251
187	0xc0032832	-2.0493283
188	0x3e7c34c9	0.24629511
189	0xbf144b31	-0.57927233
190	0xbeb4d124	-0.35315812
191	0xbf9cde4c	-1.225534
192	0xbe79eee0	-0.2440753
193	0xbe5a5e9f	-0.21325158
194	0xbeb8ea3b	-0.36116204
195	0x3de7f054	0.11325136
196	0xbe2b3f62	-0.16723397
197	0x3f98e185	1.1943823
198	0xbf827757	-1.019267
199	0xbf6d7982	-0.9276353
200	0x3ecd4ec2	0.4009915
201	0xbf46e251	-0.7768908
202	0xbf3acedb	-0.72971886
203	0x3f82af26	1.0209701
204	0x3f97363f	1.181343
205	0x3fda2d44	1.7045064
206	0x4029e349	2.6544974
207	0x4043f6ae	3.0619311
208	0x3fd274dd	1.6441914
209	0x3efe5ef3	0.49681816
210	0x3fc8131c	1.5630832
211	0x3e3e6137	0.18591772
212	0x3ecdcfa4	0.4019748
213	0x3f320719	0.6954208
214	0xbfa12623	-1.2589763
215	0xbf9a4372	-1.2051833
216	0xbf63999a	-0.8890625
217	0xbe9fad79	-0.31187037
218	0xc008826f	-2.132961
219	0xbe780d26	-0.24223766
220	0x3fa09bac	1.2547507
221	0xbecdf68b	-0.4022716
222	0xbf480a30	-0.78140545
223	0xc0062591	-2.0960429
224	0xbe08dc83	-0.13365369
225	0x4004aaeb	2.072932
226	0x3ec26b85	0.37972656
227	0x3edcf42b	0.43155035
228	0x3f003dc0	0.50094223
229	0xbfbd8af1	-1.4808027
230	0xc059e564	-3.404626
231	0x3fd0a972	1.6301711
232	0x3d9ec320	0.07752061
233	0xbff7567e	-1.932327
234	0x4075fee4	3.8436823
235	0x3f7c48cf	0.985486
236	0x3faab331	1.3335935
237	0x3fba178e	1.4538438
238	0x3ee496d8	0.44646335
239	0xbe11f452	-0.14253357
240	0x3e54bf63	0.20776133
241	0xbf5d421f	-0.8642902
242	0xbe423f44	-0.18969446
243	0xc028f4b5	-2.6399357
244	0xbfed004c	-1.8515716
245	0xbed58a1d	-0.41706935
246	0xbf95553a	-1.1666634
247	0x3faee281	1.3662874
248	0x3f54b46c	0.830878
249	0x3e9037f5	0.28167692
250	0x3f84bc26	1.0369918
251	0x3f6b5305	0.9192355
252	0x40311912	2.7671552
253	0x3ee625b7	0.4495065
254	0x3f748857	0.9552054
255	0xbeb4b6c6	-0.35295695
