utils/benchmark-orientation/matlab/src/KeypointOrientations/GHHPoolingEF/prelearned/efsift/layer2_W.npy (npy, 36080 bytes, 1 tensors)

array f4 [50, 20, 3, 3]
00000000: 402b d9be 4252 e2be 573f 4fbf 965b 5abf
00000010: d8ef 8d3e 816d 03bf 7a64 7dbe 2839 32be
00000020: f32a b43e 42de 5a3f 77bd 323f f066 dd3f
00000030: 172b 31bf 4426 24bf 7c43 073f 47b1 4b3f
00000040: 2e56 35bb 8101 2c3e 9528 f6bf 75b7 f03e
00000050: 694a c5be caca 9dbf 1acb 8f3e 19b5 6bbf
00000060: d64c d73e 70a7 b13e e724 f0be 218d 373f
00000070: 11e1 d7be f95a 36be 7a20 503f d3f0 28bd
00000080: c939 7ebf e041 ad3a 8438 5d3d dd28 c73e
00000090: 9bf6 133f 2d21 37be 9ea5 993d c50d 2d3f
000000a0: 7dec 35be e68e 9bbe 6d55 523f 467f 2fbe
000000b0: 87d7 823f 3730 063f 2542 86be b8ab 3f3e
000000c0: dc64 823d 15f7 a93e a2b3 a2be 79a4 6a3b
000000d0: 500f 653e fec0 68bf 0052 933e 838b 993e
000000e0: 935e 16be 21f8 53bf a99d d2be ed00 5cbe
000000f0: 37aa 1e3f 3d9d 8b3e b77d b03e 6b34 253c
00000100: 5289 04bf 0386 163f 1bfc 5dbf a3a2 5f3e
00000110: 8fa1 053e a174 a63e 09f7 d4be 9ea2 2c3f
00000120: 8dfe cd3e 67e4 94bd 9196 ca3e 037c fabd
00000130: 52f7 793e 27bf cfbf 88a6 353f 8c53 a63d
00000140: a2a2 f7be c66c 4bbf c3a3 233f 2a3e 45bf
00000150: fabc 25bf 2b37 2e3f be60 093e 0e1e 973e
00000160: 886c 823e c7c0 963d e0c3 5fbd 744f 313f
00000170: b6a3 803d 94da 20bc aa8e 333f 2d8c b33d
00000180: 2ccf 79bf 3e56 08bd 95a1 803f 817d d43e
00000190: f05a 41be 3397 a5bd c8ba bebe 4cf9 c8be
000001a0: fd8b 19be 0e4f 433f 8f89 4d3f f84a 273f
000001b0: 7a9f bc3e f8ae 323f ecf5 eabe 2e14 a73d
000001c0: 3f19 903e 8584 40be 5acb 913f 2b65 0abe
000001d0: 9d6f 27bd b8de 963e ce82 9bbe dc03 ffbe
000001e0: 99b8 f13e 98fb 0bbf 4fd6 e4bd fe0a 213c
000001f0: 5cea b43e 4e0a 013f 36d0 93be 43e6 d6be
00000200: 2e5b afbf e984 3dbf 1c94 0a3e 0e5f 8dbc
00000210: d739 95bf cc14 2e3e 7a25 10bf d06f 053e
00000220: f864 c23e 42ab c1be 073a e13e 9551 713f
00000230: c9fc 2abf f0cd cdbe 276a 33be 75ee 8ebd
00000240: 6ca4 c4be 2f77 41be 0854 2bbf 011e 5ebe
00000250: 3320 05bf 6878 d8be efac 443e d9ce ccbe
00000260: ccae ba3d c505 1ebd 8797 083f 5983 c43e
00000270: 482e 46bf 8da2 f9be 6d35 e8bd ab5c e63e
00000280: 488c 3e3f 02d7 f8be 6fdf 0fbe 61fb 85bf
00000290: a628 30bf ebed ca3d d300 473f 5602 683e
000002a0: ab25 88bf 9d68 e53e c5fa f0be a6f7 ccbe
000002b0: de37 39bf b710 953e d031 0f3f 2475 9cbf
000002c0: 1bf4 4ebf 9d77 45bf f0fd 693f 434b 0ebf
000002d0: 2057 b83e 99af 3b3f 4d39 2c3f 64e2 593f
000002e0: dcf1 8abd e3dc 063f 8b42 873e 5e79 2fbe
000002f0: 1af5 633f 1b76 1fbf 6903 243e e08e 17bf
00000300: c2e2 1b3e e17f b5be 393a fdbe df26 fcbe
00000310: 2eb8 34bf 39a6 0f3f 5df1 aab9 b6ef 67be
00000320: 4764 473c 9cfb 0abe 4ac6 b13e 5d80 1d3e
00000330: 470d 103d 2f32 7d3f 715b be3e 8184 e63e
00000340: cb82 f43e 0fca 2c3f a4ce 583f 2da6 023f
00000350: 910b d73c d003 9dbe 1033 1fbf 681d e2be
00000360: cca5 b0be 5e05 a7be fe34 66be d4e5 92be
00000370: 592f 81bf fc40 0a3f d87a 34be d814 20be
00000380: 12dd 913e 549e d13c 7613 6ebf 4089 77bc
00000390: d18b 59bf e9eb 9ebd e769 1f3d ca26 2fbf
000003a0: 03a6 693f 892b 923e 4beb f53e fd73 b63e
000003b0: eede 513f 4fff d13c 627c 3a3f ab24 1d3e
000003c0: d1f2 a73e a993 1bbf d771 cfbe 2a8f 2ebe
000003d0: e1e1 42bf 5dbb 113e e341 98bf 7674 b13d
000003e0: 72d1 043e b2b4 2ebf f64f 86bf c725 bd3c
000003f0: 07c3 22bf 0408 bcbe 0252 133e 3a91 7abf
-0.4241581 -0.44203383 -0.80956024 -0.85296 0.2772205 -0.51338965 -0.2474536 -0.17404616
0.35189018 0.8549539 0.6982035 1.7297039 -0.69206375 -0.6412089 0.5283735 0.7956738
-0.0027669775 0.16797449 -1.9231135 0.47014967 -0.38533333 -1.2327511 0.28084642 -0.9207321
0.4205081 0.34698057 -0.46903154 0.7169972 -0.421639 -0.17808141 0.81299555 -0.041245293
-0.99306923 0.0013218485 0.054008976 0.38898364 0.57798165 -0.1788375 0.07502292 0.67599136
-0.17765994 -0.3038246 0.821616 -0.17138395 1.0222024 0.5241732 -0.2622234 0.18717849
0.06366894 0.3319632 -0.31777674 0.00358036 0.22369123 -0.9091948 0.287735 0.29989251
-0.14684515 -0.8280049 -0.4113591 -0.21484728 0.6197848 0.272684 0.34470913 0.010083298
-0.51772034 0.58798236 -0.8671281 0.21839385 0.13049911 0.32510856 -0.41594723 0.67435634
0.4023327 -0.07270127 0.39567998 -0.122306846 0.24410751 -1.623021 0.7095723 0.08121404
-0.48366266 -0.7946285 0.63921756 -0.7704798 -0.6474148 0.6805293 0.1341581 0.29515117
0.25473428 0.07360988 -0.05463016 0.6926186 0.062812254 -0.009817738 0.70139563 0.08766971
-0.97581744 -0.033285372 1.0049311 0.41502002 -0.18882346 -0.080854796 -0.37251878 -0.39252698
-0.14994808 0.762925 0.8028802 0.6534877 0.3684042 0.6979823 -0.45890749 0.08158146
0.2814426 -0.18800552 1.1390183 -0.13515155 -0.040877927 0.29466796 -0.30373234 -0.49807632
0.4721115 -0.54680777 -0.111736886 0.009829281 0.35335052 0.5040635 -0.2886979 -0.4197255
-1.3699701 -0.7403093 0.13533062 -0.01725724 -1.1658276 0.17000121 -0.56307185 0.13030934
0.37967658 -0.37825972 0.43989584 0.9426511 -0.6679197 -0.4019618 -0.17520963 -0.06979076
-0.38406694 -0.18893121 -0.66925097 -0.21691133 -0.5200226 -0.42279363 0.19206594 -0.40001562
0.09115371 -0.03857972 0.5335621 0.3838146 -0.7741437 -0.4875683 -0.11338315 0.44992575
0.744328 -0.48601538 -0.14050077 -1.046734 -0.68812025 0.099086605 0.7773563 0.22657141
-1.0636495 0.44806376 -0.47066322 -0.4003269 -0.7235087 0.29114315 0.5593538 -1.2223248
-0.80841225 -0.7713564 0.914031 -0.5558359 0.3600397 0.73314816 0.67274934 0.8511107
-0.06784412 0.52680796 0.26417956 -0.17136142 0.8904587 -0.6228959 0.16016926 -0.59202385
0.1522322 -0.35449126 -0.49458483 -0.49248406 -0.70593536 0.5611301 -0.00032604756 -0.22650036
0.012169904 -0.13572544 0.34721595 0.15380998 0.035168912 0.989047 0.3717914 0.45022967
0.47756037 0.67495817 0.8469031 0.51034814 0.026250632 -0.3066697 -0.6218729 -0.4416306
-0.34501493 -0.32621282 -0.22481152 -0.2869097 -1.0092574 0.5400541 -0.17624986 -0.15632951
0.28488976 0.025588192 -0.92998445 -0.015108407 -0.8497897 -0.0775984 0.038919356 -0.6841856
0.9126894 0.2854884 0.48031077 0.35635367 0.8198079 0.025634436 0.72846043 0.15346019
0.32802442 -0.60772187 -0.4051654 -0.170468 -0.76125914 0.1423163 -1.1895107 0.08664791
0.12970522 -0.6824447 -1.0493152 0.023089303 -0.6357884 -0.36724865 0.14386752 -0.9787785
