utils/benchmark-orientation/matlab/src/KeypointOrientations/GHHPoolingEF/prelearned/efsift/layer3_W.npy (npy, 320080 bytes, 1 tensors)

array f4 [50, 100, 4, 4]
0.020315245 -0.06854859 0.571974 -0.949128 0.37636483 0.08671505 -0.10470151 0.0034816442
-0.24021545 0.5215129 -0.2565013 0.32252428 0.4787624 0.7495772 0.03294734 -0.80269575
-0.025980856 -0.08497482 0.107535504 0.7207654 -0.5577491 -0.8524417 -0.25364822 -0.048454117
-0.039580047 -0.5733996 -0.20166121 -0.060801655 -0.049964655 0.1914956 0.0024730565 0.2102481
0.32455367 0.63941365 -0.218468 0.27253184 -0.6463613 0.4210251 -0.12017373 0.16352054
-0.019711467 0.906981 0.26262656 -0.19617 0.383773 0.06902167 -0.7552637 0.3220612
0.25074926 -0.32351866 -0.022428287 -0.119852036 -0.318648 -0.71982074 0.16887102 0.3560874
0.016575973 1.0696168 -0.2476857 -0.6520845 -0.14525217 0.19098975 1.2448562 0.101203844
-0.7235691 -0.547206 0.8920629 -0.89087576 -0.50112915 -0.22931552 0.076291434 -0.018667256
0.34927085 -0.17616898 0.7220184 -0.25406548 -0.46725503 0.6249508 -0.62335885 -0.13645416
0.33662802 -0.26161513 -0.9640759 -0.014145161 -1.3011851 -0.009765589 0.2209176 -0.2599325
0.7851922 0.23908189 0.734144 0.5475019 0.01630517 -0.58145446 -0.33073744 -0.07795687
-0.17486545 0.24284124 0.17819329 -0.7009164 -0.116808206 -0.7551959 -0.26222038 0.6850378
-0.67400175 0.49277994 -1.1620644 0.42843705 -0.89312947 -0.53758997 0.69299877 0.29876518
-0.10485898 0.8933087 -0.6418995 0.42859566 -0.57090163 0.4609472 1.1020234 -0.26374573
0.43054262 0.29390118 0.8111983 -0.16343348 0.49276048 -1.1061473 -0.36503714 -0.00385974
-0.22001831 0.7548914 -0.40111423 0.05103727 -0.9872927 0.4204007 0.7142686 -0.2233334
-0.10961601 -0.34925237 -0.09445694 -0.03264175 -0.2711546 -0.9143289 -0.21121238 -0.22085957
0.03873771 0.43162864 0.65093005 0.5038186 0.7676154 0.12741002 -0.49809203 0.25997004
-0.25004333 0.21252358 -0.6520325 0.08501105 -0.8960442 0.068299256 0.48017794 -0.27164012
-0.15763527 -0.6264922 -0.6738844 0.43992838 -0.16608448 0.82957274 -0.09302661 -0.39110413
0.18238512 0.35529706 -0.8882901 0.11595396 0.034150377 -0.22309016 0.0788333 -0.7609988
-0.3219948 -0.012591043 -0.22675832 0.5169897 0.034494776 -0.2910853 -0.6036006 0.33003065
-0.28010538 0.54790926 -0.42450064 -0.5477631 0.0036243512 0.62110656 -0.53355885 0.08445475
0.55655044 0.4803476 0.44798014 -0.48879978 -0.43918502 0.06764489 -0.27043298 0.1406359
-1.8628273 -0.70856404 0.35933 -0.2987413 -0.38401234 -0.6119439 -0.23655438 0.1964664
0.22002704 -0.46669006 -0.59970665 0.3009715 0.009947376 -0.02506685 0.43423226 -0.6487191
0.024939358 0.53999555 -0.60002077 -0.57290477 0.060930274 -0.1440487 -0.083434716 -1.0117301
-0.45169303 -0.46378815 -0.7086449 0.2779468 -0.5470132 -0.5004184 -0.17614233 0.2985992
-0.8273774 0.050937057 -0.24823399 0.0022537985 1.0967635 -0.20021662 -0.25539538 0.5135781
-0.00279607 0.4677799 0.030158458 -0.6943985 0.25529635 0.67028004 0.39680347 -0.40885
-0.47894835 -0.6167733 -0.25625712 -0.48072118 0.05593672 0.3749493 0.6310732 -0.8768426
00000000: 286c a63c 3463 8cbd e36c 123f 0dfa 72bf
00000010: e4b2 c03e a997 b13d bf6d d6bd 4c2c 643b
00000020: 0afb 75be df81 053f 2354 83be e721 a53e
00000030: 5820 f53e 4be4 3f3f caf3 063d 787d 4dbf
00000040: ced5 d4bc 4707 aebd 933b dc3d 1584 383f
00000050: a5c8 0ebf 9f39 5abf 2ede 81be d377 46bd
00000060: b01e 22bd 51ca 12bf 4780 4ebe 280b 79bd
00000070: bda7 4cbd 6c17 443e 0113 223b 474b 573e
00000080: e62b a63e 9db0 233f 13b6 5fbe 4b89 8b3e
00000090: ef77 25bf 9a90 d73e a51d f6bd ee71 273e
000000a0: f179 a1bc e82f 683f fd76 863e cae0 48be
000000b0: e57d c43e 3c5b 8d3d f658 41bf 35e5 a43e
000000c0: 3562 803e 3da4 a5be 87bb b7bc fc74 f5bd
000000d0: d525 a3be 2c46 38bf 86ec 2c3e 1651 b63e
000000e0: 56ca 873c 34e9 883f 52a1 7dbe 03ef 26bf
000000f0: fcbc 14be d192 433e 7357 9f3f f643 cf3d
00000100: d33b 39bf b115 0cbf 3c5e 643f 6f10 64bf
00000110: 004a 00bf b0d1 6abe af3e 9c3d 13ec 98bc
00000120: a1d3 b23e a465 34be 33d6 383f df14 82be
00000130: 0d3c efbe c7fc 1f3f 7294 1fbf a4ba 0bbe
00000140: 825a ac3e 6bf2 85be aecd 76bf 1bc1 67bc
00000150: 3c8d a6bf d9ff 1fbc 3938 623e df15 85be
00000160: 5b02 493f e2d1 743e dcf0 3b3f 1629 0c3f
00000170: 6b92 853c 33da 14bf 6b56 a9be daa7 9fbd
00000180: ee0f 33be 60ab 783e 4d78 363e 426f 33bf
00000190: 2439 efbd 8554 41bf c041 86be a35e 2f3f
000001a0: 618b 2cbf a74d fc3e 87be 94bf 1a5c db3e
000001b0: 22a4 64bf 7f9f 09bf 5e68 313f c0f7 983e
000001c0: 4ec0 d6bd e1af 643f 8753 24bf e470 db3e
000001d0: 9c26 12bf 4501 ec3e 1a0f 8d3f ae09 87be
000001e0: 1570 dc3e 377a 963e b1aa 4f3f 1b5b 27be
000001f0: 1a4b fc3e 3c96 8dbf 26e6 babe b1f3 7cbb
00000200: 7b4c 61be 9040 413f d85e cdbe 750c 513d
00000210: 37bf 7cbf c33e d73e 4fda 363f 83b1 64be
00000220: 5c7e e0bd 35d1 b2be a472 c1bd 5bb3 05bd
00000230: c7d4 8abe 7511 6abf 0f48 58be 0329 62be
00000240: 6fab 1e3d 6efe dc3e 5aa3 263f 41fa 003f
00000250: 7182 443f c677 023e eb05 ffbe cb1a 853e
00000260: ae05 80be c89f 593e 9aeb 26bf 461a ae3d
00000270: 2763 65bf 7be0 8b3d e2d9 f53e 6a14 8bbe
00000280: 246b 21be cb61 20bf b083 2cbf 4b3e e13e
00000290: 0d12 2abe e15e 543f bc84 bebd cd3e c8be
000002a0: 2ac3 3a3e 7fe9 b53e fb66 63bf 4579 ed3d
000002b0: 44e1 0b3d bf71 64be 5a73 a13d d1d0 42bf
000002c0: 81dc a4be a94a 4ebc 5533 68be 7059 043f
000002d0: 654a 0d3d 2209 95be 9285 1abf c7f9 a83e
000002e0: f969 8fbe c843 0c3f 2658 d9be 343a 0cbf
000002f0: 8686 6d3b d700 1f3f 5097 08bf 9df6 ac3d
00000300: 177a 0e3f 1ff0 f53e a75d e53e f743 fabe
00000310: dcdc e0be 6789 8a3d 3176 8abe db02 103e
00000320: 2071 eebf 7464 35bf 1afa b73e 9ff4 98be
00000330: 449d c4be 5ba8 1cbf 503b 72be 7d2e 493e
00000340: c54e 613e 00f2 eebe 6086 19bf f018 9a3e
00000350: 52fa 223c ff58 cdbc b153 de3e 7412 26bf
00000360: a04d cc3c 263d 0a3f f69a 19bf e3a9 12bf
00000370: 0692 793d 8181 13be d2df aabd 5f80 81bf
00000380: 4f44 e7be a475 edbe c169 35bf 0b4f 8e3e
00000390: 0f09 0cbf 6c1b 00bf a85e 34be ffe1 983e
000003a0: 01cf 53bf 60a3 503d 0d31 7ebe 77b4 133b
000003b0: bf62 8c3f 9605 4dbe 2fc3 82be db79 033f
000003c0: 453e 37bb d980 ef3e df0e f73c 1ac4 31bf
000003d0: 34b6 823e 7997 2b3f d329 cb3e ca54 d1be
000003e0: b838 f5be dbe4 1dbf 2234 83be 1621 f6be
000003f0: e71d 653d 5bf9 bf3e 038e 213f c278 60bf
