utils/benchmark-orientation/matlab/src/KeypointOrientations/GHHPoolingEF/prelearned/efsift/layer3_b.npy (npy, 6480 bytes, 1 tensors)

array f4 [100, 4, 4]
-0.33646357 -0.39425468 0.7689965 -0.13298692 -0.024179412 0.34962738 -0.68507284 -0.1247297
-0.6203737 0.6811138 0.5135775 -0.18285589 -0.2322264 -0.0938472 -0.8964901 0.9264749
-0.88279545 0.039232716 -0.2583472 -0.3213597 0.9804911 -0.013851932 0.1370499 1.1630441
-0.45842603 -0.09160406 -0.03477883 -0.8204151 0.9764648 0.24443442 -0.18220136 0.34261683
-0.25843903 0.37777278 -0.043627452 -0.022954596 -0.11635842 -1.3282864 0.16497785 0.54855573
-0.28534922 0.15758033 0.27991387 -0.5601445 0.5405813 0.053608008 -0.3667445 0.18642293
0.5659606 0.045265608 -0.0017246162 -0.4611031 0.31267914 0.12025172 -0.26907995 -0.5756226
0.386577 -0.123275176 0.12597919 0.019467296 -0.20036383 0.074622236 0.090305254 -0.470554
-0.9017387 -0.35345906 0.6424145 0.64055884 -0.40610665 -0.08796438 0.5893736 0.07490033
-0.46308815 0.33877808 -0.074222505 -0.19582404 0.23030132 0.21608011 -0.20509575 -0.008401872
0.0984028 0.19599918 -0.002061943 0.117682874 -0.50521874 0.1403552 0.13505766 -0.22421706
0.17731492 -0.014138663 0.22789043 -0.16028571 -0.15808168 -0.2126912 0.15028037 0.038142316
0.6812666 -0.0956565 -0.40643442 -0.658653 0.05441934 -0.27493247 -0.08291348 -0.17853856
-0.12106811 -0.24063656 -0.30415344 0.66555285 -0.006508097 -0.2483574 -0.029386574 -0.32966474
0.2477932 -0.017292561 -0.12111075 -0.40798596 -0.40148374 -0.066017024 0.24784477 0.36883166
-0.044835147 0.11114835 0.3179713 -0.22079882 0.5038822 -0.6190079 -0.30646852 0.011279349
0.10169265 0.3859572 -0.38706216 -0.05299099 -0.21653925 -0.68739796 0.34091082 0.3100008
0.45214474 -0.07986763 -0.30959934 -0.36748362 0.013768433 0.07903902 -0.03251207 0.13180335
-0.43997413 1.0312384 0.46141464 -0.10113818 -0.090358324 -0.15872817 0.05215502 -0.5060974
-0.31005132 0.35458076 0.48593667 -0.12790722 -0.18670298 0.08444115 -0.7578063 0.5254747
0.1757842 0.47355604 -0.20938256 0.20067626 -0.18393275 -0.17477082 -0.6148939 0.42308477
-0.24038953 -0.19692843 0.410744 0.2161896 -0.019273529 -0.09671376 -0.1976893 -0.42996138
0.3948402 -0.006102528 0.12879683 0.86462367 0.07695548 -0.712323 0.252935 -0.10972569
0.35691297 0.77381885 -0.035797674 0.3439256 -0.036557827 -0.64725226 0.033520807 0.036394835
0.027168898 -0.1518183 1.002804 -0.36306682 0.010856961 0.003111456 -0.7203945 0.11092593
-0.5308583 0.8792027 0.36196062 0.021426454 0.0572843 0.0102521805 -0.59032214 -0.31455916
-1.0168927 0.14814232 0.006810453 -0.15057695 0.3949682 0.36239594 0.42407107 -0.0820874
-0.3653438 -0.297316 0.037097037 -0.27672055 0.2787425 -0.09751945 0.58204395 0.2630719
-0.24259566 -0.38901654 0.44672057 0.1660727 -0.034262076 -0.08984066 -0.011498494 -0.052416522
-0.10860622 -0.08918738 0.449444 -0.27527046 0.20448445 0.111860394 -0.3625538 -0.22900435
-0.2599778 0.47422668 0.23072343 -0.009252559 -0.054314822 -0.023682205 -0.2655001 -0.07895022
-0.022292383 -0.21276529 0.24433821 0.24052544 -0.4444417 -0.022943337 0.09271945 0.044916693
00000000: f444 acbe c0db c9be f4dc 443f b92d 08be
00000010: e713 c6bc 5c02 b33e ef60 2fbf 4972 ffbd
00000020: d0d0 1ebf 795d 2e3f d179 033f 933e 3bbe
00000030: c2cc 6dbe f632 c0bd 6080 65bf 762d 6d3f
00000040: e2fe 61bf 7cb2 203d 1646 84be 4289 a4be
00000050: 7701 7b3f 37f3 62bc cf56 0c3e a1de 943f
00000060: d1b6 eabe e99a bbbd 3f74 0ebd b906 52bf
00000070: 99f9 793f 044d 7a3e fe92 3abe 796b af3e
00000080: 1f52 84be 6f6b c13e b3b2 32bd 470b bcbc
00000090: 534d eebd 4a05 aabf f4ef 283e 266e 0c3f
000000a0: 4b19 92be bd5c 213e df50 8f3e a165 0fbf
000000b0: 8963 0a3f 1294 5b3d efc5 bbbe a7e5 3e3e
000000c0: cbe2 103f 6e68 393d 840c e2ba b515 ecbe
000000d0: 7b17 a03e 8946 f63d d9c4 89be 015c 13bf
000000e0: 6ced c53e b277 fcbd b000 013e e179 9f3c
000000f0: 2d2c 4dbe 8bd3 983d f6f1 b83d 74ec f0be
00000100: 59d8 66bf 96f8 b4be 4775 243f aafb 233f
00000110: 36ed cfbe ab26 b4bd 30e1 163f 5865 993d
00000120: e419 edbe 5274 ad3e f801 98bd 1986 48be
00000130: 1cd4 6b3e 1b44 5d3e 9f04 52be 01a8 09bc
00000140: 6887 c93d 02b4 483e aa21 07bb b803 f13d
00000150: 0456 01bf 46b9 0f3e 8e4c 0a3e 2899 65be
00000160: 0b92 353e daa5 67bc 1c5c 693e f021 24be
00000170: 2ae0 21be b9cb 59be 19e3 193e 1e3b 1c3d
00000180: 7d67 2e3f 8ee7 c3bd 2c18 d0be 7c9d 28bf
00000190: d0e6 5e3d f3c3 8cbe 8bce a9bd d0d2 36be
000001a0: 8ff2 f7bd 6e69 76be 00ba 9bbe ac61 2a3f
000001b0: e041 d5bb 6751 7ebe 1dbc f0bc d1c9 a8be
000001c0: 80bd 7d3e 21a9 8dbc ea08 f8bd 89e3 d0be
000001d0: 478f cdbe ef33 87bd 05cb 7d3e 81d7 bc3e
000001e0: 0fa5 37bd bfa1 e33d 22cd a23e 1619 62be
000001f0: 6dfe 003f 4d77 1ebf 71e9 9cbe 05cd 383c
00000200: 3c44 d03d 2f9c c53e 032d c6be 150d 59bd
00000210: 77bc 5dbe 50f9 2fbf dd8b ae3e 6db8 9e3e
00000220: 847f e73e a491 a3bd ce83 9ebe d026 bcbe
00000230: fe94 613c 36df a13d 602b 05bd 75f7 063e
00000240: 4a44 e1be 9fff 833f 8a3e ec3e 8921 cfbd
00000250: c90d b9bd a389 22be 81a0 553d 998f 01bf
00000260: 0cbf 9ebe 9c8b b53e b1cc f83e 1cfa 02be
00000270: 112f 3fbe 7bef ac3d 98ff 41bf 8385 063f
00000280: c600 343e f075 f23e 6268 56be 147e 4d3e
00000290: de58 3cbe 1ff7 32be b069 1dbf 919e d83e
000002a0: ac28 76be 9ba7 49be 0a4d d23e ce60 5d3e
000002b0: 85e3 9dbc dd11 c6bd 106f 4abe e623 dcbe
000002c0: 7f28 ca3e b7f7 c7bb 51e3 033e fa57 5d3f
000002d0: d69a 9d3d cd5a 36bf b280 813e ddb7 e0bd
000002e0: 4cbd b63e fe18 463f 95a0 12bd 0417 b03e
000002f0: a9bd 15bd 53b2 25bf 1d4d 093d c012 153d
00000300: 4f91 de3c 4276 1bbe e25b 803f e5e3 b9be
00000310: 65e1 313c 92e9 4b3b c66b 38bf 222d e33d
00000320: 54e6 07bf 6e13 613f e752 b93e 8886 af3c
00000330: f1a2 6a3d c3f8 273c 5a1f 17bf e60d a1be
00000340: 8a29 82bf 9fb2 173e 382a df3b d830 1abe
00000350: 4639 ca3e f68b b93e d81f d93e 701d a8bd
00000360: 580e bbbe ce39 98be 10f3 173d 51ae 8dbe
00000370: 56b7 8e3e 47b8 c7bd d500 153f 5cb1 863e
00000380: ff6a 78be 2d2d c7be 8fb8 e43e f60e 2a3e
00000390: 6456 0cbd 61fe b7bd 2e64 3cbc b5b2 56bd
000003a0: f06c debd e0a7 b6bd 861d e63e 40f0 8cbe
000003b0: 5f64 513e 1017 e53d a7a0 b9be 1e80 6abe
000003c0: cf1b 85be d7cd f23e c342 6c3e 0c98 17bc
000003d0: 3879 5ebd 2f01 c2bc a1ef 87be a7b0 a1bd
000003e0: 849e b6bc 25df 59be cc33 7a3e 4d4c 763e
000003f0: dd8d e3be aaf3 bbbc b2e3 bd3d 91fa 373d
