utils/benchmark-orientation/matlab/src/KeypointOrientations/GHHPooling/prelearned/sift/layer3_W.npy (npy, 320080 bytes, 1 tensors)

array f4 [50, 100, 4, 4]
000000 08 04 0b be d7 f3 da 3e dc 36 0a 3f 2c 8a b1 bf
       -0.13575757 0.4276416 0.5398996 -1.3870292
000010 ae 4c c0 3e 2d 80 10 bd 14 cc 2a be 82 12 ea 3d
       0.37558502 -0.035278488 -0.16679412 0.11429311
000020 af b8 95 be dd 2b 29 3f 64 4b d5 be ee bb 19 3f
       -0.29242465 0.66082555 -0.4165908 0.6005238
000030 cd df 41 3e 4d b8 5b 3f 9a ca f4 bd 74 c1 6b bf
       0.1893303 0.85828096 -0.11952706 -0.9209206
000040 68 6c 6d be a2 55 24 be 55 30 e3 3c 5e 38 59 3f
       -0.23185885 -0.16048291 0.027733007 0.84851635
000050 25 14 90 be c6 f5 41 bf 01 1a 72 3d d3 c1 65 be
       -0.2814037 -0.75765646 0.05910683 -0.2243722
000060 92 a6 88 3d 94 e0 d9 be af 44 fa be d1 af 79 be
       0.06672396 -0.42554152 -0.48880526 -0.24383475
000070 2b c6 4f 3e c2 e5 31 3f 9b 7e 1b be 47 af 4d be
       0.20290439 0.6949121 -0.15185015 -0.20086394
000080 f1 a0 a5 3e 3d cc 2f 3f 30 24 00 be 8b f6 da 3d
       0.3234935 0.6867102 -0.12513804 0.106915556
000090 ff 27 15 bf 9c 31 7c 3e b9 c9 02 bf 60 88 83 3e
       -0.58264154 0.246283 -0.51089054 0.25689983
0000a0 f2 cf 0a bd cc 77 75 3f 76 98 1b be 47 cb 4f bd
       -0.03388972 0.9588592 -0.15194878 -0.05073097
0000b0 8e 48 9d 3e e5 53 31 bd f0 c4 08 bf 66 7d e8 3d
       0.30719417 -0.0432929 -0.534255 0.11352043
0000c0 09 12 c4 3e d8 88 b0 be 79 c9 20 be 5a 89 e8 3e
       0.3829501 -0.34479403 -0.15701856 0.4541729
0000d0 69 c0 13 bf 7f 95 b6 be 7a f9 a3 bc 86 a7 e5 3e
       -0.5771547 -0.3566093 -0.02001642 0.44854373
0000e0 29 fb 90 3e 64 d4 7b 3f 53 7c 37 be 6c bd 20 bf
       0.2831662 0.9837096 -0.1791852 -0.62789035
0000f0 d8 9a 42 3c 85 63 7a 3e cf 36 64 3f 67 54 89 3e
       0.011877738 0.24452026 0.8914613 0.26822206
000100 25 00 08 bf 6b cf 8d be 14 da 40 3f fc 93 03 bf
       -0.5312522 -0.2769731 0.7533276 -0.5139768
000110 cc 72 fd be d6 ec 8c be 47 57 0e bb c1 80 a0 be
       -0.49501646 -0.2752444 -0.0021719502 -0.3134823
000120 60 f7 5c 3f 06 06 d4 be 31 0b 49 3f 75 df 8e 3e
       0.86314964 -0.41410846 0.785327 0.2790486
000130 31 dd a3 be e9 49 15 3f 70 11 d7 be 4f fe d5 be
       -0.32004693 0.583159 -0.4200549 -0.41795585
000140 34 26 a8 be d8 97 7d be 8e 70 70 bf 77 a8 9a 3d
       -0.32841647 -0.24764955 -0.93921745 0.07551663
000150 f0 c5 08 bf 51 e5 76 3e 27 78 a0 3e cc 1f f9 bd
       -0.5342703 0.24110915 0.3134167 -0.12164268
000160 e0 82 d7 3e 9b 69 7c 3e c2 90 8d 3e b4 3a 1a 3f
       0.42092037 0.2464966 0.27649504 0.60245824
000170 15 50 03 3f 4b 38 12 bf 1c ad bc be 69 e6 45 3f
       0.5129407 -0.57117146 -0.36850822 0.77304703
000180 3c b9 05 be 83 90 68 3e 5c 39 85 3d 29 21 52 be
       -0.13058943 0.22711377 0.06505081 -0.20520462
000190 60 c5 02 bf e3 8e 36 bf ca c0 a9 be e4 3f ab 3e
       -0.5108242 -0.7131178 -0.331549 0.33447182
0001a0 28 54 b4 bf f9 11 f0 3e 83 d2 3a bf 8c 84 08 3f
       -1.4088182 0.46888712 -0.72977465 0.5332725
0001b0 5e bb 7e bf 59 95 eb be 44 04 48 3f 05 45 19 3e
       -0.9950465 -0.4601238 0.7813151 0.14967735
0001c0 cf 03 b0 be f5 15 39 3f 9c 52 50 bf 0a 2e 21 3f
       -0.34377906 0.7229913 -0.8137605 0.62960875
0001d0 c4 ea bb 3e 68 aa b1 3e 98 4c 66 3f d4 54 9f 3e
       0.3670255 0.34700322 0.8996062 0.31119406
0001e0 73 12 8b be b1 84 80 3e 58 0e 77 3f e3 b9 8c be
       -0.27162513 0.25101236 0.9650626 -0.2748557
0001f0 11 b3 29 3f b9 86 18 bf 58 7b 9e be 34 24 54 bd
       0.6628886 -0.5958057 -0.3095348 -0.05179234
000200 e0 6d a7 be 8a 87 57 3f be a1 27 be 4c 84 1f be
       -0.32701015 0.8419119 -0.16370293 -0.15577811
000210 d5 57 7a bf 28 0e 47 3e 97 0a 6c 3f 2b 1c 4c bd
       -0.9779027 0.19438994 0.9220366 -0.04983155
000220 18 d7 80 be 29 f3 cd be 5e 2a ed be ea b2 63 3e
       -0.25164104 -0.4022458 -0.46321386 0.22236219
000230 93 24 e4 bc 9d fa 50 bf 93 a5 d8 bc 6a 36 ad be
       -0.027849471 -0.81632406 -0.02644614 -0.33830577
000240 92 3a 4a 3e 6b bc 18 bd 24 3f 3e 3f ba b8 2a 3f
       0.19748905 -0.037289064 0.74315095 0.6668812
000250 17 b4 1c 3f b4 1a e2 3e 55 aa ed be 9b 7e 91 3e
       0.61212295 0.44160998 -0.46419016 0.28416905
000260 a7 b5 ec 3c 46 20 a3 3e ee 56 97 bf e5 db 13 3d
       0.028895212 0.3186056 -1.1823404 0.03609838
000270 65 c6 7c bf c5 0a c7 3d 8c 8d 0f 3f 86 47 40 bf
       -0.98740226 0.09718851 0.5607536 -0.75109136
000280 27 39 04 3e 08 39 b8 be 3c 8c 45 bf 97 3b 5f 3e
       0.12912427 -0.3598101 -0.77167106 0.21800075
000290 e0 20 c1 be f9 18 b9 3e 50 d6 e0 3e 41 5d c6 be
       -0.37720394 0.36151865 0.43913507 -0.38743022
0002a0 54 9f a8 3e b7 c0 11 3f 4d fb cf be 40 5c 91 bd
       0.32934058 0.56934685 -0.40621415 -0.070976734
0002b0 9d b9 7d be 6e 92 7c be 2e cd d8 3e ad bc fc be
       -0.24777837 -0.24665233 0.4234404 -0.49362698
0002c0 2c 08 ae be d7 c0 05 3f aa 8b b4 be ca 4c 2a 3f
       -0.3399061 0.52247375 -0.35262805 0.6652342
0002d0 22 56 01 be f1 28 9c be df 77 17 bf 34 1e a2 3d
       -0.12630513 -0.30499986 -0.59167284 0.07915917
0002e0 90 2c 35 be 69 4a 47 3f df bc e1 be 8c b2 bf bd
       -0.1769278 0.77847916 -0.4408941 -0.09360227
0002f0 1c 85 92 3e 81 9c 1c 3f ed 74 2e bf 5a 06 37 be
       0.2861718 0.61176306 -0.68147165 -0.17873517
000300 82 e3 2a 3f 62 38 6a 3f e2 f0 c2 3e 3c 8a 0b bf
       0.667534 0.91492283 0.38074404 -0.54507804
000310 a1 4f cf be 5c 86 a5 bd 79 ff 1d 3d ec 37 a6 3e
       -0.4049044 -0.08082268 0.038573716 0.3246454
000320 6d 3b b8 bf 04 d5 37 bf 12 4f 4f 3e d4 a0 08 bf
       -1.4393135 -0.7180941 0.20245007 -0.53370404
000330 f8 e3 f6 be 77 ce 1d bf 6f f4 b8 be e5 7a cb 3e
       -0.482208 -0.61643165 -0.36123988 0.397422
000340 31 1c e0 3e d8 65 85 be 80 a7 1e bf 55 7a e6 3e
       0.43771508 -0.26054263 -0.61974335 0.45015207
000350 f8 ab 2d bf 08 8d 80 3e b5 94 17 3f da 49 7b be
       -0.6784053 0.25107598 0.59211284 -0.24539891
000360 be 92 df 3e 3d 10 99 3e 62 38 98 be 9e c0 11 be
       0.43666643 0.298952 -0.29730517 -0.14233634
000370 4f d0 a6 be 1e b0 85 bd c2 40 ad be 88 80 69 bf
       -0.32580802 -0.06527732 -0.3383847 -0.9121175
000380 f7 47 37 be bf 26 17 bf 5f d4 82 be dd ed 93 3d
       -0.17898546 -0.59043497 -0.2555265 0.07223103
000390 ca 35 00 bf c1 81 07 bf 2f cd 21 be 1a 6b 16 3e
       -0.50082076 -0.52932364 -0.15800928 0.14689294
0003a0 5a b2 fb be c1 11 71 3d e4 30 5e bd 43 ca 24 3e
       -0.4915951 0.058854822 -0.054245844 0.16092782
0003b0 b0 84 88 3f 6e 4c cf be ce fd 5e 3e 5a 82 0c 3f
       1.0665493 -0.40488 0.21776506 0.548864
0003c0 be 2f e5 3e 0b d8 96 3e c7 fc a9 bd 87 41 08 bf
       0.44762987 0.29461703 -0.083001666 -0.53224987
0003d0 5b bd c5 3d df f7 15 3f 00 fe 6c 3e 2b b6 83 bf
       0.09655257 0.58581346 0.23143768 -1.0289968
0003e0 ef 36 0f bf 91 2a 0e bf 75 91 b1 be 32 0a 5d be
       -0.55943197 -0.555337 -0.34681287 -0.2158592
0003f0 69 4f 83 be 97 5a b2 3e 58 ec 27 3f 4f a4 2d bf
       -0.25646523 0.3483474 0.65595007 -0.6782884
