utils/benchmark-orientation/matlab/src/KeypointOrientations/GHHPooling/prelearned/sift/layer0_W.npy (npy, 1080 bytes, 1 tensors)

array f4 [10, 1, 5, 5]
000000 80 d1 ed be c8 b9 6c 3f 52 dc 45 3f 14 f1 7a 3f
       -0.46448898 0.9247098 0.7728931 0.98024106
000010 19 22 8e be 8c 9c d9 be b3 18 35 bf be d0 32 bf
       -0.2776039 -0.42502248 -0.70740813 -0.69849765
000020 6b 4a ea bd b8 ca 67 3f 07 56 e3 be 8d 10 f3 be
       -0.11439975 0.905437 -0.4440157 -0.47473565
000030 fb e0 4d 3d 23 3d 75 bf 63 68 59 3f d7 4b 59 bd
       0.050263386 -0.9579641 0.84924906 -0.053050842
000040 53 51 2a bf a0 fc 1d 3f 9f 33 b4 3e fa ed a2 be
       -0.6653034 0.617136 0.35195634 -0.31822187
000050 00 46 2a 3f 37 6c 03 bc d2 7a 7b bf 92 eb 2c be
       0.6651306 -0.008021406 -0.98234284 -0.16886738
000060 91 08 25 3e 90 fe 94 3e 7d ab 8e 3e 60 88 fc 3e
       0.16116549 0.29100466 0.2786521 0.49322796
000070 8b 16 5e 3e e4 79 88 3e 26 71 c1 be 53 be 3e 3e
       0.21688287 0.26655495 -0.37781638 0.1862729
000080 e9 4e 34 3e bf ae 28 3f 9c 1d 31 be 24 27 36 bf
       0.17608227 0.6589164 -0.17296451 -0.71153474
000090 c3 77 8d 3e c7 0f 7b 3e fc 62 2d be fc 58 12 bf
       0.27630433 0.24517737 -0.16932291 -0.5716703
0000a0 72 f2 06 be d6 71 ae be e8 58 fc be 68 18 b8 bf
       -0.13178423 -0.34071225 -0.4928658 -1.4382448
0000b0 d7 73 3d bf 43 34 bb 3e 67 15 4f 3f 51 9f c4 bd
       -0.7400488 0.3656331 0.8089203 -0.096007
0000c0 a4 48 0e 3f db 98 14 3f 19 fc 8d 3f 55 56 30 3e
       0.5557959 0.5804574 1.1092559 0.17220433
0000d0 3e bd 0d bf f9 ab df be 60 9f 20 3f 69 87 09 be
       -0.55366886 -0.43685892 0.62743187 -0.13430561
0000e0 8a 7a bc be 84 d1 36 bf fe 5a 0f bf 09 3b 02 3e
       -0.3681224 -0.71413445 -0.5599822 0.12717833
0000f0 78 4d 85 bf 37 56 5c 3e 52 ac 3d be 57 4f 3c bf
       -1.0414267 0.21517263 -0.18522766 -0.73558563
000100 7c 45 7b 3e 5c a4 78 3e a6 3c c2 3e 39 ac 52 3f
       0.24538225 0.24281448 0.37936896 0.8229404
000110 f3 9f ab bd cd 78 13 bb 78 9d 52 3f 81 5d 20 3f
       -0.08380117 -0.0022502423 0.8227153 0.62642676
000120 71 05 8c be ca 07 1d bf 86 8c 8e 3e ca 7a f2 3d
       -0.273479 -0.6134001 0.27841586 0.118398264
000130 c1 b7 70 be 95 56 46 bf e9 a2 1b 3e 35 47 75 3e
       -0.23507597 -0.77475864 0.15198864 0.23952945
000140 94 97 33 be 7d 42 9e 3d 0d 22 ae be fa 56 1e be
       -0.17538291 0.077275254 -0.34010354 -0.15462866
000150 32 e3 15 3f dd 31 05 3f e9 ca 09 bf dc 69 a9 be
       0.585498 0.5202921 -0.5382524 -0.33088577
000160 2f 2c 9d be 31 73 e6 3e c7 a4 06 be b8 1e 39 be
       -0.30697772 0.4500976 -0.13148795 -0.18078125
000170 36 94 ea be a6 57 b8 3d e9 d1 62 bf 6d e4 00 3f
       -0.458162 0.090010926 -0.8860155 0.5034855
000180 0c 90 0e bf a6 03 9d be b3 60 c8 3e 48 8c 79 be
       -0.5568855 -0.30666846 0.39136276 -0.2436992
000190 65 c7 9b 3d 16 2c 09 be 16 90 df bd 72 21 ec be
       0.07606391 -0.13395724 -0.10916154 -0.46119267
0001a0 be 2b 99 be 1a 3a 79 3d c5 f5 c9 3e f6 fb aa 3e
       -0.29916185 0.060846426 0.3944532 0.33395356
0001b0 69 67 41 be de 5f 26 bf 65 d6 d0 3e bb cd 89 be
       -0.18887104 -0.6499003 0.4078857 -0.26914772
0001c0 26 31 16 3e 36 8e a3 bd 10 fe 3c 3c f5 08 07 bf
       0.14667186 -0.07986109 0.011535183 -0.5274804
0001d0 10 51 a1 3f ce 96 75 3f fa 06 92 3e 38 ac 22 bf
       1.2602863 0.95933235 0.28520948 -0.63544035
0001e0 23 57 24 3f ab ff 4a be 1f 8c 5b bf c9 64 c8 3e
       0.6419546 -0.19824092 -0.8576068 0.39139393
0001f0 87 55 55 3f f3 90 b2 3e 74 4c c2 be fe 87 87 3e
       0.8333363 0.34876212 -0.37948954 0.2647094
000200 52 62 4e 3e 82 46 25 3f c5 07 13 be 97 db dd 3e
       0.20154694 0.6456071 -0.14358433 0.43331596
000210 f1 00 7f bd 96 3c df be 09 4c 93 3c 17 b8 bc 3e
       -0.062256757 -0.4360091 0.017980592 0.368592
000220 46 1c b9 3e 43 35 a6 3e 50 2b db 3e 02 c0 d7 3e
       0.36154383 0.3246251 0.42806482 0.42138678
000230 e6 7e d5 be df 23 02 3f 40 0d 90 3d a0 92 3b bc
       -0.41698378 0.50835985 0.07033777 -0.011448532
000240 d3 fa 89 be bd 37 84 be 36 33 ce 3e bb 4c 9f ba
       -0.26949176 -0.25823775 0.40273446 -0.0012153605
000250 5b 7a 2c 3f 25 00 c3 be f5 d9 83 bf f8 83 00 be
       0.673742 -0.38086048 -1.030089 -0.12550342
000260 b6 3c 6b 3e 6d e6 00 3f eb 25 b5 bc 1e f7 35 be
       0.22972378 0.503516 -0.022112807 -0.17770049
000270 ee 9d ba be 20 d3 92 3e 46 42 06 3f 22 9d 71 3e
       -0.36448616 0.286767 0.52444875 0.23595098
000280 ea 72 46 3e 7a b5 5a bf 72 3e 31 3d cd 9e d1 3e
       0.19379774 -0.8543316 0.043272443 0.40941468
000290 21 34 75 be d9 7f f7 be 30 35 32 be 01 53 77 bf
       -0.23945667 -0.48339728 -0.17403102 -0.9661103
0002a0 cb 9f 1e 3f e5 7d 40 3f 1f fd e9 3e 16 22 8a be
       0.61962575 0.751921 0.4570093 -0.2697913
0002b0 b3 d2 58 bc f3 a2 44 be 84 d9 22 3f 00 63 8b bf
       -0.013233828 -0.19202785 0.6361315 -1.0889587
0002c0 b0 3f c1 be 27 db 0c bf 59 d0 25 3f f7 2f cd 3e
       -0.37743902 -0.550219 0.6477104 0.40075657
0002d0 84 84 22 3f 3e 38 aa 3e 41 2b 1a bf 31 a7 51 bf
       0.6348345 0.33246034 -0.6022225 -0.8189574
0002e0 af 1e d7 bc 6c f1 67 3e fb c7 db bd 12 17 cc 3e
       -0.026259748 0.22650689 -0.107315026 0.3986135
0002f0 28 01 dd be 12 0f a0 be 67 a4 ed 3e f4 f8 de 3e
       -0.43164945 -0.31261498 0.46414492 0.4354931
000300 63 50 08 3f dd c0 5f be d9 67 52 bf cb 9f 16 be
       0.5324766 -0.21850915 -0.8218971 -0.14709394
000310 49 40 02 3f f9 d4 8f 3d 64 5d 38 3f cc a4 68 3e
       0.5087934 0.07023043 0.720175 0.22719115
000320 95 8f 8a bf 47 f6 42 bf 7d 73 1d bf dd f8 c7 bd
       -1.0825068 -0.7615704 -0.61504346 -0.09764264
000330 7c 10 2c bf 14 92 93 be 0c eb 78 3e 7c 72 f3 bd
       -0.67212653 -0.28822386 0.24308413 -0.118870705
000340 f2 83 48 be e9 dd c7 be 76 e8 ae bf 5d 02 66 bb
       -0.19581583 -0.39036492 -1.3664691 -0.0035096623
000350 e3 1b 99 3e ec 4b 08 be 8f 1d ab 3f 55 b3 ad bd
       0.29904088 -0.13310212 1.3368396 -0.084814705
000360 da d1 62 3f 93 c8 48 3e 37 74 7a 3f 72 61 cf 3e
       0.8860146 0.19607763 0.9783358 0.40504032
000370 59 1d eb 3e 6b d0 95 3e 97 08 64 3f 2a 44 38 3e
       0.45920828 0.29260573 0.8907561 0.17994753
000380 6e 36 2b be 11 71 ec bb 44 ca 3b 3e e9 4a e2 bd
       -0.16719982 -0.007215627 0.18338877 -0.11049444
000390 fa 03 06 3f ca cd 5f bf 3c 1e 15 3f ed 48 7b bd
       0.5234982 -0.87423384 0.5824926 -0.061348844
0003a0 a8 d6 0f bf b4 68 28 bd 5d b1 d1 3d e0 97 66 3f
       -0.56186914 -0.041115478 0.102389075 0.9007549
0003b0 69 f5 aa 3e 02 46 8c bd 1b 2a f5 bd 7a 4a 11 bf
       0.33390358 -0.068492904 -0.119709216 -0.5675427
0003c0 b1 a3 1e 3f 80 13 62 3e b1 42 88 3e 5a 15 34 bf
       0.61968523 0.22077751 0.26613382 -0.7034508
0003d0 c6 6f 01 bf 9b 04 0d 3f 95 5d 9d 3e 7c 00 db bd
       -0.5056118 0.5508515 0.3073546 -0.10693452
0003e0 5a a3 0b bd 88 22 3b bf
       -0.03409133 -0.73099566
