utils/benchmark-orientation/matlab/src/KeypointOrientations/GHHPooling/prelearned/sift/layer2_W.npy (npy, 36080 bytes, 1 tensors)

array f4 [50, 20, 3, 3]
000000 58 4f 37 be a3 b7 f1 be 2d 73 14 be 9d 7f 9f be
       -0.17901361 -0.47210416 -0.14497061 -0.3115205
000010 4c 07 4d be 27 29 8e bf 9b bd e6 be ba ea ac be
       -0.20022315 -1.1106309 -0.45066532 -0.33772832
000020 d3 e9 f6 bb af 70 c6 3e bb bb 20 3f 8f 04 ec 3f
       -0.0075351982 0.38757846 0.62786454 1.8438891
000030 1e 39 ad be d6 1d 8e bc ed 57 56 3f 94 14 8d 3f
       -0.3383264 -0.017348211 0.83727914 1.1021905
000040 b3 77 bf bd 05 77 80 3c 3c 54 81 bf 3c 3e ad 3d
       -0.09349003 0.015681753 -1.0103831 0.08459136
000050 e6 ba 37 bf 5c a2 19 bf 49 d6 58 bf 9b bc c1 bf
       -0.7176956 -0.60013366 -0.84701973 -1.5135683
000060 ad 79 88 3e 49 bb af 3e 68 c7 94 bf c5 ba 3b 3f
       0.2665533 0.34322575 -1.1623354 0.7333186
000070 3e f5 7f bd 7e 25 7f be f2 a8 93 3f 46 cc fb bd
       -0.06248974 -0.24916646 1.1535933 -0.122948214
000080 da d2 ef be dd ec 90 3e aa 53 66 3e 06 b7 01 3f
       -0.46840554 0.28305712 0.22492853 0.50669897
000090 53 3e 17 3f 81 15 ae 3d f8 7b d0 3e 84 a0 fb 3e
       0.59079474 0.08500195 0.4071958 0.491459
0000a0 58 aa 08 bf f4 ce 89 be 25 93 1e 3f 7c f3 50 be
       -0.53384924 -0.26915705 0.61943275 -0.20405382
0000b0 a5 83 8c 3f 39 ce 20 3e ef ca 14 bf ae 93 ce be
       1.0977675 0.15703668 -0.5812215 -0.40347046
0000c0 04 9f 66 bd b3 2c d7 3e 21 13 a3 bd 71 c7 8a 3c
       -0.056303993 0.4202629 -0.07962633 0.016940804
0000d0 25 a1 da 3d 15 60 7a bf 25 81 cd 3e 03 13 84 3e
       0.10675267 -0.9780286 0.40137592 0.25795755
0000e0 df cd 02 be 87 7d 8f bf a3 f8 0b bf 4e b0 b4 be
       -0.12773846 -1.1210183 -0.54676265 -0.3529076
0000f0 a4 d0 8f 3e cc b5 d0 3e 5b 7c d5 3e 3d 20 6d bd
       0.28088868 0.407637 0.41696438 -0.057892073
000100 af ad d4 be e3 62 75 3f 6e 51 a2 bf 28 9c c5 3e
       -0.4153876 0.95854014 -1.26811 0.385957
000110 70 e9 e8 3d dd f7 52 3e 58 61 27 bf ae a3 24 3f
       0.1137265 0.20602365 -0.6538291 0.64312255
000120 d1 8e 2f 3f 6a 82 fc bd f2 3b 0c 3f 39 87 94 be
       0.68577296 -0.12329562 0.5477897 -0.29009417
000130 4e e9 c7 bd cf 56 dc bf b9 64 44 3f 01 fe 8a 3e
       -0.09761296 -1.7213992 0.7671619 0.27146915
000140 46 00 1a be 79 5e 95 bf 0a 48 20 3f 88 70 33 bf
       -0.15039167 -1.1669456 0.6260992 -0.70093584
000150 e7 1e 58 bf 37 fe 5d 3f de 5d ef bc 03 cb 26 3e
       -0.84422153 0.86716026 -0.029219564 0.1628838
000160 e8 08 99 3e e3 63 fe 3d d2 b4 50 be 27 eb 92 3e
       0.29889607 0.12421396 -0.20381477 0.28695032
000170 14 8d 9d bb 99 c3 48 be 74 e6 f8 3e 94 25 b7 be
       -0.0048080776 -0.19605865 0.48613322 -0.35770857
000180 61 08 4c bf 2c 73 f0 bd 4c 0f 92 3f b2 04 10 3f
       -0.79700285 -0.11740717 1.1410918 0.56257164
000190 6e 2c 83 3e 0d 53 9a 3e 71 84 a5 bd fb 2d c7 be
       0.25619835 0.30141488 -0.08081902 -0.38902268
0001a0 a9 9d 2e 3e dd 75 e8 3e b2 3b 9d 3f 41 4f 01 3f
       0.1705233 0.45402423 1.2283843 0.50511557
0001b0 d3 3c e9 3c 06 d2 41 3e 59 e7 06 bf 64 13 85 3e
       0.028471386 0.18927774 -0.5269676 0.25991356
0001c0 a3 ed b8 3e 46 1f f6 be 01 a4 09 3f 4d 55 2f 3e
       0.36118802 -0.48070735 0.53765875 0.17122383
0001d0 54 db 04 3e d5 02 f8 3c 9c ab a7 be 3a 01 a6 bc
       0.12974292 0.030274788 -0.32748115 -0.020264257
0001e0 77 45 1a 3f 3b 84 10 bf 84 90 7b 3a 84 90 1b be
       0.60262245 -0.5645177 0.00095964246 -0.15191847
0001f0 13 c1 41 bd ed 59 1c 3f 31 cb 48 bc 96 fc 03 bf
       -0.04730327 0.61074716 -0.012255476 -0.5155729
000200 11 04 24 bd 2e 6e f7 bf c4 ef 7d be a3 69 24 be
       -0.04004294 -1.9330499 -0.24798495 -0.16055922
000210 4f 27 93 bf fe c6 a2 3d 99 f5 3e bf 14 9d 42 bd
       -1.1496371 0.07948111 -0.745935 -0.047513083
000220 a6 3d 76 be 48 a5 a5 be 9e 66 01 3d 92 43 26 3f
       -0.24046955 -0.32352662 0.031592004 0.64946854
000230 f0 7a 8d be 02 f5 12 bf af 63 67 bf 3b bd d2 3e
       -0.27632856 -0.574051 -0.9038648 0.41159996
000240 fb 3e 0d bd 14 30 32 be b7 74 01 bf 06 9c bc be
       -0.03448389 -0.17401153 -0.5056872 -0.36837786
000250 a8 27 6e be 5e 4b 6d be 4c bb a1 3e 35 5a 2a bf
       -0.23257315 -0.23173282 0.3158821 -0.66543895
000260 8b b5 09 3f 2c 32 81 bd 79 08 2b 3e 2e d0 75 3e
       0.5379264 -0.06308398 0.16702451 0.24005195
000270 48 3d 23 bf 0e 83 14 bf 1a 33 0c 3f 61 71 d7 3e
       -0.6376538 -0.58012474 0.54765475 0.4207869
000280 68 28 42 3f 11 66 b0 3e f1 91 5c 3e 5c 4a 42 bc
       0.75842905 0.3445287 0.21540047 -0.011858549
000290 6e e2 cd be d2 85 22 be 70 e7 53 3f 31 4a ab 3e
       -0.40211815 -0.15871361 0.8277502 0.3345504
0002a0 8e 9a 81 bf 2d d0 11 3e aa 89 2c bf fc 6d ec 3d
       -1.0125291 0.14239569 -0.6739756 0.11544415
0002b0 f5 64 48 bf 7f 36 06 3f 95 5c 10 3f 7c 4f 18 bf
       -0.7827905 0.52426904 0.5639127 -0.59496284
0002c0 3f 64 fe 3e d2 3f 19 bf 52 d6 85 3f 4b 6d 2f bf
       0.49685857 -0.5986301 1.045603 -0.6852614
0002d0 ed aa 4a bd 4b cc 87 3f ae d6 8d bd a5 64 62 bd
       -0.049479414 1.060922 -0.069257125 -0.055271763
0002e0 47 80 c9 be 1e 3a 75 be 09 b6 b4 3e 4d a0 10 bf
       -0.3935568 -0.23947951 0.35295132 -0.564946
0002f0 d9 87 13 3f eb cd d3 be 88 a1 a0 3e 8d a7 78 bf
       0.5762916 -0.4136804 0.3137324 -0.9713066
000300 0a 54 e9 be 4f 58 c7 be 9f ca 14 bf 41 56 18 3e
       -0.4557193 -0.38934562 -0.58121675 0.14876653
000310 95 8f 94 bf 33 a8 27 3f aa 02 32 bf 8e 4c db bc
       -1.1606318 0.65491027 -0.69535315 -0.026769903
000320 dc cd 74 be be 6b b8 be b3 e2 71 be a5 66 89 3e
       -0.23906654 -0.360197 -0.23621635 0.26836124
000330 8a 62 74 bf 6d 6c 40 3e cd 4b 3f 3e 27 e4 9e 3d
       -0.9546286 0.18791361 0.1868126 0.0775836
000340 15 0f 36 3e a3 42 47 3e 2d 28 5b 3f bf 1a 32 3c
       0.17779191 0.19459014 0.8560818 0.010870635
000350 dd b7 41 bd 8f 5a 47 be e1 bb d8 be 63 e0 21 bf
       -0.047294486 -0.19468139 -0.4233084 -0.6323301
000360 1d 7f f2 3e b7 c6 09 3d ed a4 58 3e d8 e2 a6 3e
       0.47362605 0.033636775 0.21156664 0.32594943
000370 e6 ac 2f bd dd 18 37 3f 77 1e 43 3e 5e db 2b be
       -0.0428895 0.71522313 0.1905459 -0.167829
000380 2f cf 22 3f 9c 6b 48 3f 32 3e 9a be 3a 0f af 3e
       0.6359739 0.782892 -0.30125576 0.34191304
000390 c3 f6 b2 bc e0 a2 2d 3c 04 db d1 bc 90 56 3a be
       -0.02184618 0.010597914 -0.02561713 -0.18197083
0003a0 e1 1e aa 3f ba df 14 3f 62 0f 4f 3f 24 cd 79 3e
       1.3290673 0.5815388 0.8088285 0.24394661
0003b0 ac b3 9c 3f a2 0a b6 3b 28 0b 67 3f 14 6d 55 3f
       1.2242332 0.0055554667 0.902514 0.83369565
0003c0 c3 c8 25 bf ab e5 e6 be f8 51 b6 3b aa 05 ec 3b
       -0.64759463 -0.45097098 0.0055639707 0.0072028236
0003d0 83 e7 16 bf 3d 4c 35 3e 3e 05 31 bf b8 d7 3f 3e
       -0.5894701 0.17704864 -0.69148624 0.18734634
0003e0 13 e1 20 bf 87 c9 78 be ac 6f f9 be 7b b9 ee be
       -0.62843436 -0.24295627 -0.4871801 -0.46625885
0003f0 4a 4a 58 3f c1 a0 d5 be 84 dc 79 be a8 73 9c be
       0.84488356 -0.41724208 -0.24400526 -0.3055699
