utils/benchmark-orientation/matlab/src/KeypointOrientations/GHHPooling/prelearned/sift/layer4_W.npy (npy, 12880 bytes, 1 tensors)

array f4 [100, 2, 4, 4]
00000000: 20ab 08bf f044 c4be e8aa 22bd fe8f 94bf
00000010: dfcb c33d 69bd 213d 309e 35bf 744d 4bbe
00000020: 2311 c53d ec1a 3bbe 899c 78bf 9f12 bdbe
00000030: f60f 20be f594 3ebe 35ec b63d c61a 04bf
00000040: 44d0 cf3c 72df f63e ebf8 44bf 3171 173f
00000050: 3e89 05bf 5942 31bd 293f 8a3f 09e1 b93e
00000060: be59 2abf a3b2 1f3f fc84 e2be c0e0 8b3e
00000070: 371c 25bf 8baf 153f 3ed0 963e d92a c63e
00000080: 1eb0 1a3f 5dc7 debd 87cd 2c3d 98a9 f03c
00000090: 9460 56be 4e92 7ebf e3e9 df3d efdc 1abf
000000a0: ec53 a43e 7740 423f 6e36 18be b677 cb3e
000000b0: 494e afbe 0b49 9e3e cf74 fb3d a695 f23e
000000c0: 0f05 be3e 3073 383e e3eb aa3f 0596 3bbf
000000d0: ccfe 563f 7264 ad3e 6672 373e ddd5 9bbe
000000e0: 7cc9 573e 3635 ce3e 9dca 7d3e d679 a7be
000000f0: 7dbc 0dbf 9021 05bf a406 f5be 3fc0 173d
00000100: ee43 58bf 52e1 b4bc b420 293f 2278 513f
00000110: 88ee 933d 31a6 cdbd f103 3c3e ce7c d53e
00000120: db25 3e3e b876 47be 899e a33e 5a6f a03e
00000130: 06a9 d8be e0e0 10be 9d8c 34bf 9a13 9e3e
00000140: 9cfb 1e3e e9e6 a13e b4d3 05bf e94a cdbe
00000150: fe89 d03e fde6 febd ea3e 993f ff93 273e
00000160: 59bd 0abf b533 603f de1d 85bf e2d7 4cbf
00000170: 8ccd 383e c6ce a6be 3a2b db3d 2156 9bbe
00000180: fd6c c3bd 0e48 a63d 3431 07bf 2b5d 18bc
00000190: 6537 fb3e b01e 3cbf 6be0 c93e 2a80 3abd
000001a0: d076 41bf 2562 4c3f a117 4e3f 7eb4 c63e
000001b0: df2c 26be 2b1f 1ebf 4d3c 25be 8762 653d
000001c0: 3b3a a9bd 199a 8f3c e260 143e 10b0 4ebe
000001d0: e0ea 6b3e f37d 063e 2155 4fbd bacb 1cbf
000001e0: 00d8 563f 2996 68bf 3f51 813c 2b29 88bf
000001f0: 81df 3bbf 68a4 aa3d c8bc 42bf 2587 0bbf
00000200: 6b50 58bd 9191 4b3f 8ee1 1e3f d839 97be
00000210: a594 323f 7c55 62be 7b65 0e3f 13cb de3d
00000220: 707e 88bd e23b 323e 2769 fa3e af3f 58be
00000230: 236f 55bf d43c 0bbe 9679 0abf 43d0 37bf
00000240: 2d57 46bd d982 833e 1b5b 483e d622 55bf
00000250: adb6 87bf 8e68 95bf 3639 01bd bc04 e4be
00000260: ac3f c33e 9bed a8bd e2ed 5ebf f82b dfbd
00000270: 504a 73bf 2153 5bbf 0b94 22bf baa8 88be
00000280: beda f5be a069 ebbe 6574 363d e42f 3a3f
00000290: de0b 3bbe e23d e7be 86ad 323a 8f80 853e
000002a0: d65e dabe 973b aebd b84d c839 ff99 72be
000002b0: a756 823e 90ac a6be f5f7 50bf 67bd 3cbf
000002c0: 046b 2f3f 1777 ecbe e00b 673f e6f2 e83e
000002d0: f775 13be 7b00 47be b0b9 f8be 478c 20bf
000002e0: 3f76 75bd 22a3 87be fe74 2d3e b180 193f
000002f0: 62f0 61be 75d7 df3e c6ff 713e 482a cc3e
00000300: 8b9d 243f 0c75 db3e 3e4a cb3d bd3d 9ebe
00000310: 5bd7 6f3e 11b0 1cbf 7bf9 72bf fb8b ee3d
00000320: 063a e03e 9608 263f 70d5 203e 4de8 c73d
00000330: e854 1cbf a19b 0fbf ff08 e8be b507 5fbf
00000340: 5d95 ad3c b8f1 233f ca0e 063f 0913 1fbf
00000350: 24ea e2be b36a de3e 0acb 6c3e 39a0 3f3e
00000360: 658f 8e3e 2a13 4b3e 28e4 6cbf 3b2c c03e
00000370: 4ef6 09be 10f6 803e 4619 f5be b54b 813e
00000380: 6a49 453e 9771 2bbe 37a9 213e 22ff ce3d
00000390: af31 21be a79d f8be 8ebc 263e 0d7c 183e
000003a0: bcbe fb3e 8629 573f 9fcd cb3e d621 d73d
000003b0: 68cd c7be 89ff 5abe 0845 473f f464 0f3f
000003c0: 9e09 6abe dc7e f5be 99e6 9ebf 8060 eabe
000003d0: a853 90bc 398e ad3d b9e4 5abf 098c 583f
000003e0: a7f3 3ebe b90e ea3e 672d 4cbf b6f3 70bf
000003f0: a5b8 94be 739f be3f c601 fa3e 6d01 233f
-0.53386116 -0.38333845 -0.03971377 -1.1606443 0.0956037 0.039487276 -0.709445 -0.19853765
0.09622409 -0.18271989 -0.97113854 -0.3692827 -0.15631089 -0.1861151 0.08931772 -0.51603353
0.025367863 0.4821735 -0.7694232 0.5915709 -0.5216254 -0.043276165 1.0800525 0.363045
-0.66543186 0.62381953 -0.44242084 0.27319908 -0.6449618 0.5847098 0.2945575 0.38704565
0.60424984 -0.10877869 0.042188194 0.029377744 -0.20935279 -0.99441993 0.10933282 -0.6049337
0.32095277 0.75879616 -0.14864513 0.3973977 -0.34239414 0.30915102 0.12278139 0.47379798
0.37113234 0.1801269 1.3353237 -0.73275787 0.8398254 0.33865696 0.17914733 -0.30436602
0.21072954 0.40274972 0.24784322 -0.3271014 -0.55365735 -0.5200434 -0.4785663 0.037048575
-0.8447865 -0.022080097 0.66065526 0.81823933 0.072232306 -0.10041464 0.18360879 0.4169678
0.18569128 -0.19478881 0.3195689 0.31334955 -0.42316455 -0.14148283 -0.7052706 0.3087433
0.15525669 0.31621483 -0.5227616 -0.40096214 0.4073028 -0.12446401 1.1972325 0.1636505
-0.5419517 0.875789 -1.039974 -0.8001691 0.1804716 -0.3257963 0.10701604 -0.3033915
-0.09542272 0.08119212 -0.52809453 -0.009299557 0.490657 -0.73484325 0.3942903 -0.045532383
-0.7557192 0.79837257 0.80504805 0.3880958 -0.16228054 -0.6176631 -0.16136284 0.056002166
-0.0826306 0.017529534 0.14490083 -0.2018435 0.23038816 0.13133983 -0.050618295 -0.6124836
0.8392334 -0.90854126 0.015785811 -1.0637563 -0.73387915 0.08332139 -0.7606931 -0.5450309
-0.052811068 0.7951899 0.6206292 -0.2953632 0.69758064 -0.22102922 0.55623597 0.10878577
-0.06664741 0.17405656 0.4890835 -0.21118043 -0.83372706 -0.13597423 -0.54091775 -0.7180216
-0.04842298 0.25685766 0.19566004 -0.8325628 -1.0602623 -1.1672533 -0.0315487 -0.44534862
0.38134515 -0.08248445 -0.8708173 -0.10897058 -0.95035267 -0.8567372 -0.63507146 -0.26691228
-0.4801845 -0.45979023 0.044544596 0.72729325 -0.18266246 -0.451644 0.0006816018 0.26074645
-0.4265048 -0.085074596 0.00038204878 -0.23691557 0.25456735 -0.3255353 -0.8162835 -0.73726505
0.6852267 -0.46184608 0.90252495 0.45497817 -0.14400469 -0.19433777 -0.48579168 -0.62714046
-0.05992722 -0.26491648 0.1693916 0.5996199 -0.22064355 0.43719068 0.23632726 0.39876008
0.6430289 0.42862737 0.0992627 -0.30906478 0.23421995 -0.61206156 -0.94911927 0.11647793
0.43794268 0.6485685 0.1570642 0.09761105 -0.61067057 -0.56096846 -0.45319363 -0.87121135
0.021189386 0.6404071 0.52366316 -0.6213842 -0.4431926 0.4344078 0.23124328 0.18713464
0.27843776 0.1983153 -0.9253564 0.37533745 -0.13472864 0.2518773 -0.47870845 0.25253072
0.19266286 -0.1674255 0.15787207 0.101072565 -0.15741609 -0.4855778 0.16282865 0.14891072
0.49168956 0.84047735 0.39805314 0.105045006 -0.390239 -0.21386541 0.7783971 0.5601342
-0.22855231 -0.4794835 -1.2414123 -0.4577675 -0.017618015 0.084743924 -0.85505253 0.84588677
-0.18647633 0.45714357 -0.7975678 -0.94121873 -0.29047123 1.489241 0.48829478 0.6367405
