utils/benchmark-orientation/matlab/src/KeypointOrientations/GHHPooling/prelearned/sift/layer3_b.npy (npy, 6480 bytes, 1 tensors)

array f4 [100, 4, 4]
-0.010216979 0.37930194 0.1291599 -0.19863074 -0.43577573 0.043238476 -0.17739066 0.0
0.12993436 -0.13539287 -0.05196521 0.17660972 0.1482049 -0.44398096 -0.16439553 0.06855422
-0.3121502 -0.08646183 -0.12042667 0.046350464 0.110205375 0.066861026 0.49554878 -0.010424622
-0.39773512 -0.113317996 -0.10899065 -0.24382344 -0.09499088 0.017603513 0.17510173 0.35903004
0.094136685 -0.109309405 0.0 0.18266822 -0.016504072 -0.21799786 -0.100988984 0.0109273605
0.5045282 0.032889597 0.36380658 -0.3523196 -0.063957885 0.001957848 0.03296858 -0.08427238
0.019424038 -0.062390354 -0.5586683 0.108227335 -0.076257765 -0.0003454521 0.06236746 0.1725859
-0.0705957 -0.021698976 -0.08977578 -0.0499316 -0.076776065 -0.019284466 0.15263979 -0.032588065
-0.00080715 0.47366208 -0.07533037 -0.7684253 0.014184821 0.7857959 -0.132824 0.04133142
-0.052938715 -0.23790576 0.052918326 -0.1664147 -0.22806282 -0.07963544 -0.19646965 0.3944534
-0.3262711 -0.008280162 0.055772133 0.038289644 0.39699727 0.2968242 -0.2143525 0.3315527
-0.2210574 0.0 -0.21687724 -0.18539679 0.078608304 1.0414287 0.11729347 0.0058100605
-0.5317856 0.11770867 0.0 0.070763856 -0.17372502 -0.4924376 -0.1849858 0.42083064
-0.5933429 -0.01688595 0.019826034 -0.26317695 0.15139647 -0.004003999 -0.23766027 0.4059539
-0.14625128 0.3381975 -0.117175855 -0.058276523 -0.06038509 -0.080530174 0.3362174 -0.32038563
-0.2901727 -0.2050277 0.10378178 -0.0741 -0.0051736394 0.0026236235 0.0129791 0.0
0.0017757239 0.708766 0.01132629 -0.07320034 -0.059382122 -0.16001788 -0.16397247 0.013938083
0.19289728 0.023766248 -0.1173377 -0.022805622 0.21558955 -0.11164725 0.04306399 -0.1418112
0.0046773395 -0.099469885 0.7589973 0.02775845 -0.35101348 0.07231184 -0.021286406 0.09257371
-0.11209296 -0.10371647 -0.049640846 0.39717987 -0.116856195 -0.21113563 -0.13200863 0.13250601
0.17695442 0.07400748 0.34275624 0.056978066 0.057739817 0.12122312 -0.055880807 -0.15735444
-0.014887473 -0.21087354 0.7664577 0.39038935 0.06267849 -0.5058708 -0.11866207 -0.026050363
-0.19899634 0.26356754 0.10527637 -0.2173748 -0.07533015 -0.048337217 0.14456555 0.17876856
0.044849858 0.020485252 0.26133958 -0.1630648 -0.16390093 0.20543617 -0.016569154 -0.006154112
-0.0387397 -0.12229859 0.09022282 0.2182001 -0.38709635 0.24860348 0.06362024 0.014490803
0.33105615 -0.48896548 0.2086442 -0.32855576 0.067897655 -0.022028672 -0.11718834 0.08029778
-0.24324667 -0.1415525 0.0 -0.28846714 0.3127257 -0.17314278 -0.120837495 0.46108228
-0.02256542 -0.05389142 -0.54036313 -0.13076447 0.32871816 -0.11749699 0.40644106 -0.05593212
0.2772864 -0.22504264 -0.11667542 0.327177 -0.04115556 0.0 0.0 -0.039890755
0.14984179 0.017781073 -0.18760335 0.012398874 -0.19427976 0.052845065 0.08935795 -0.16355775
0.4181395 -0.124214776 0.17066102 0.37538588 -0.009281378 -0.2895779 -0.045372356 -0.5097677
-0.00069195504 -0.030131761 0.3001612 0.40810114 0.0 0.0 0.079654835 -0.3812456
00000000: 1e65 27bc dd33 c23e 7e42 043e db65 4bbe
00000010: ff1d dfbe d41a 313d e6a5 35be 0000 0000
00000020: 830d 053e 6ea4 0abe 79d9 54bd 2ed9 343e
00000030: 06c3 173e 7951 e3be 4d57 28be 2866 8c3d
00000040: 27d2 9fbe e612 b1bd 42a2 f6bd fcd9 3d3d
00000050: 5bb3 e13d 6fee 883d 92b8 fd3e 09cc 2abc
00000060: f0a3 cbbe 4413 e8bd 7d36 dfbd daac 79be
00000070: 948a c2bd 3e35 903c de4d 333e c9d2 b73e
00000080: bcca c03d 9cdd dfbd 0000 0000 610d 3b3e
00000090: 8c33 87bc d53a 5fbe 50d3 cebd ac08 333c
000000a0: c328 013f 3eb7 063d db44 ba3e 3c63 b4be
000000b0: 5afc 82bd 3d4f 003b 100a 073d ff96 acbd
000000c0: 291f 9f3c 078d 7fbd e304 0fbf 4ba6 dd3d
000000d0: 082d 9cbd cc1d b5b9 0675 7f3d 5cba 303e
000000e0: 7a94 90bd 0dc2 b1bc 5ddc b7bd 1485 4cbd
000000f0: c53c 9dbd 75fa 9dbc 9b4d 1c3e 107b 05bd
00000100: eb96 53ba d683 f23e cf46 9abd 85b7 44bf
00000110: 7467 683c ec29 493f 0403 08be 234b 293d
00000120: 44d6 58bd 919d 73be e3c0 583d 9d68 2abe
00000130: 4d89 69be e817 a3bd 572f 49be ccf5 c93e
00000140: 010d a7be 84a9 07bc 5271 643d 9ad5 1c3d
00000150: 3a43 cb3e 57f9 973e 397f 5bbe 47c1 a93e
00000160: df5c 62be 0000 0000 1115 5ebe a8d8 3dbe
00000170: 64fd a03d 894d 853f 8f37 f03d 5262 be3b
00000180: 1a23 08bf 3e11 f13d 0000 0000 a4ec 903d
00000190: f9e4 31be c820 fcbe eb6c 3dbe 1d77 d73e
000001a0: 52e5 17bf 6754 8abc 356a a23c 21bf 86be
000001b0: ad07 1b3e fa33 83bb 375d 73be 31d9 cf3e
000001c0: e5c2 15be 3928 ad3e e5f9 efbd 5db3 6ebd
000001d0: 5b56 77bd 01ed a4bd b024 ac3e 9609 a4be
000001e0: 8491 94be c8f2 51be 8b8b d43d bec1 97bd
000001f0: a287 a9bb 19f1 2b3b 4ba6 543c 0000 0000
00000200: 68bf e83a b071 353f e791 393c 0fea 95bd
00000210: ab3a 73bd badb 23be 66e8 27be 8f5c 643c
00000220: dd86 453e 6fb1 c23c c04e f0bd dbd2 babc
00000230: 82c3 5c3e 50a7 e4bd de63 303d f536 11be
00000240: 5e44 993b deb6 cbbd a64d 423f b065 e33c
00000250: 0ab8 b3be 3b18 943d d460 aebc 4997 bd3d
00000260: fe90 e5bd 4d69 d4bd 3354 4bbd 295b cb3e
00000270: 4d52 efbd f033 58be 452d 07be a8af 073e
00000280: 8a33 353e 3c91 973d bf7d af3e d561 693d
00000290: 9680 6c3d d443 f83d 46e3 64bd 8621 21be
000002a0: 96ea 73bc 3cef 57be 9236 443f 1de1 c73e
000002b0: 955d 803d c080 01bf 1905 f3bd 9267 d5bc
000002c0: b2c5 4bbe 53f2 863e 239b d73d 8097 5ebe
000002d0: b246 9abd 3ffd 45bd fe08 143e 1b0f 373e
000002e0: 7cb4 373d b0d0 a73c 4dce 853e 75fa 26be
000002f0: a5d5 27be dc5d 523e 09bc 87bc 6fa8 c9bb
00000300: 85ad 1ebd af77 fabd bec6 b83d d96f 5f3e
00000310: 7e31 c6be e991 7e3e 544b 823d d56a 6d3c
00000320: 3180 a93e af59 fabe d3a6 553e 7638 a8be
00000330: ed0d 8b3d 7975 b4bc 7100 f0bd 2a73 a43d
00000340: a815 79be 23f3 10be 0000 0000 f7b1 93be
00000350: 951d a03e 574c 31be a679 f7bd fa12 ec3e
00000360: 1edb b8bc 40bd 5cbd 3d55 0abf 1fe7 05be
00000370: bf4d a83e 43a2 f0bd 0b19 d03e 1419 65bd
00000380: 7cf8 8d3e 9471 66be 86f3 eebd be83 a73e
00000390: bc92 28bd 0000 0000 0000 0000 7d64 23bd
000003a0: 2070 193e 9da9 913c 181b 40be a624 4b3c
000003b0: 46f1 46be 1174 583d 4d01 b73d af7b 27be
000003c0: 6116 d63e 5164 febd c3c1 2e3e 9432 c03e
000003d0: ec10 18bc 8e43 94be 5dd8 39bd 2380 02bf
000003e0: 5164 35ba e2d6 f6bc bbae 993e a2f2 d03e
000003f0: 0000 0000 0000 0000 1322 a33d a032 c3be
