utils/benchmark-orientation/matlab/src/KeypointOrientations/GHHPooling/prelearned/sift/layer1_W.npy (npy, 20080 bytes, 1 tensors)

array f4 [20, 10, 5, 5]
00000000: 653b b6be e55d ec3d 4352 fb3e 5c72 3bbe
00000010: e618 e43d 513e 9f3e 1cc7 163f 5c7a 18be
00000020: ebff fbbe b59b 1c3f f93d eebe 91b0 f53e
00000030: ae8d 67be 360d b9be 580b 8f3e f3a8 75be
00000040: 88b5 15be 2d19 1cbe 2e80 18be 4d8d 53bf
00000050: 612b 52be f40d 01bf caba 203e 34e5 cf3e
00000060: 668e c3be f02d b0bc d535 0c3e 26f0 7b3f
00000070: 820c 1a3e beb2 c1be 4fea 34bd 1648 3cbf
00000080: ae19 c13e 0260 5c3e 5a6f e83d a64c 28be
00000090: 9ccb c5be 0191 9dbe 0009 c1bd 0249 bebe
000000a0: fd36 d6be 5050 09be a3e1 6cbe 6cc1 a13f
000000b0: 0100 803d 2f1f 93bd 3a36 e23e 90dd cebd
000000c0: aea5 0cbe 05f8 453e a039 f9bd e7dc 9a3d
000000d0: 3ef3 86be 0523 073f dce5 ad3c 83c4 78be
000000e0: f88a 4b3f 0492 c2bd c383 88bf bdbf 1dbf
000000f0: a418 163f e4e4 c63d ad24 083f 6e1c a7be
00000100: d80f 1fbf d01f 1b3e b76d 01bf 7912 d7be
00000110: f33f d63e c0a1 33be a145 213f 3ab7 e43e
00000120: 897e dcbe fe08 4f3f 3168 8b3e 7b48 3b3e
00000130: db79 c33e 042d 5e3f f725 6dbe 768a c2bc
00000140: f4c9 9cbb d103 713e 8d16 08bf 4600 c9be
00000150: 08ea 453f 2a5c 323f fbd9 8e3e df38 69be
00000160: c9f7 e6be 9ed6 21bd 2abf 283e 8164 cebe
00000170: a38a 1e3c 28b7 96be cf77 5cbf 4e04 d1be
00000180: 655e de3b 8525 53bf 4583 c8bc 057b fc3e
00000190: 4609 a8bd 2aaa febe 25e2 543e d1e5 33bf
000001a0: 78d3 78be 5338 9e3e 9afa 08be 89dd 893e
000001b0: 2143 d0be d357 03bf 6683 c13e c8a7 683e
000001c0: 8314 263f e836 a63e 57ca b0be 97a0 63bf
000001d0: 9cd2 65bf 54d8 e0bd a284 7cbe 3f37 cfbe
000001e0: b0ac 183d c9aa 3bbf 2e18 013e d411 50be
000001f0: 9d61 efbe 314a 23be 0f63 80be f841 4d3d
00000200: 0f8b b33e c071 7ebc de28 633d 51d4 2bbf
00000210: 4614 743d e919 383f c2d7 d9bd de1b 413f
00000220: 8bff cc3e ec38 993f 4fc9 cd3e 4c8f 9c3c
00000230: 1097 2bbd 898d 68bf 39f8 b3bd 389c 7ebe
00000240: ddfa 543e 1d4d cabe f38d 103f f9bf c93e
00000250: eb9f 473f 5e63 5b3e 0e25 4fbf 7803 0e3e
00000260: 89c3 e93d 7631 563f 5853 81bd 3f9a 793e
00000270: dd3a 4f3f d639 333e b328 a63e d352 093f
00000280: 5dc0 ab3d f94b 863d ccb6 a83e 46c1 a2bd
00000290: 2f3c 143d c26a f7be 5a62 2cbf bead 193e
000002a0: bea6 20bf a9fc 14be 3e01 bbbe 4709 5e3e
000002b0: 90d2 b0be 1320 a0be 4540 943e 5ac3 d03e
000002c0: 0fbf 103f ded4 efbe fcc4 e53e c26c 363f
000002d0: 6271 13bf 458c bbbe d683 8cbf 47d3 933d
000002e0: 6368 f1be f4a3 96bc 71d5 56bf 9b66 a63f
000002f0: 6ea6 ca3e 8cc8 5ebc a77e 5cbe 6055 81be
00000300: 151d c43d 7783 d2bd f206 c8be 6c81 12bf
00000310: 60ac c9be 2b7d 3fbe 60d8 73be 5d9e 84be
00000320: caf0 8abe e5ac 10bf dd64 443f b3ff af3d
00000330: aeef 493f 2f37 2dbf 7b78 1a3f c14f 6c3f
00000340: a04e 143f 2a3a 15be 6c26 e73e b4a2 263f
00000350: 6832 3dbe f511 c3be 4dec 20bf 62c1 e6be
00000360: b057 6c3e 3b20 4abf eb32 aabe ac1e 5abf
00000370: 526c e13e 6f41 e43c adbf 883f bed8 0a3e
00000380: 0353 6dbe 9ebf 763f 52f2 d0be 7f2e 95be
00000390: bfd4 623d 93dc 43be 29c4 c43e 8c3f 0d3f
000003a0: bf75 183d 7f7c 223f c7b3 1a3f 3080 9cbe
000003b0: 66b8 1cbf dfaa 91be c060 963f 3f51 1dbd
000003c0: 7498 903d 6b21 e33e 83ce aabd df9b 323f
000003d0: 733b aabd 5253 3fbf 9684 81bf 085c c03d
000003e0: a970 c13e 4b65 2dbe c40d 8e3e c7a5 fe3e
000003f0: db41 163f 6550 bc3f 34cd 8ebd 69ce 8c3e
-0.3559219 0.115413465 0.49086198 -0.18305343 0.111375615 0.3110223 0.58897567 -0.14890426
-0.49218687 0.6117509 -0.46531656 0.47986272 -0.2261264 -0.36142892 0.27938342 -0.2399023
-0.1462003 -0.15243979 -0.14892647 -0.8263748 -0.2052436 -0.50411916 0.15696254 0.40604556
-0.3819458 -0.02150628 0.1369241 0.9841331 0.15043834 -0.37831682 -0.044168767 -0.73547494
0.37714905 0.21520999 0.113493636 -0.16435489 -0.38631904 -0.30774692 -0.09425545 -0.37165076
-0.41838828 -0.13409543 -0.23132949 1.2637153 0.06250001 -0.07183682 0.44181997 -0.101008534
-0.13735077 0.19332893 -0.12169194 0.07561665 -0.26357454 0.5278781 0.02122777 -0.24293713
0.79508924 -0.095005065 -1.066521 -0.61620694 0.5863135 0.09711626 0.5318096 -0.32638878
-0.6213355 0.15148854 -0.50558037 -0.4200628 0.41845664 -0.17542171 0.6299687 0.4467104
-0.4306529 0.80873096 0.2722793 0.18289368 0.38178906 0.8678744 -0.23159014 -0.023747664
-0.004784817 0.23536612 -0.5315941 -0.3925802 0.7731023 0.6967188 0.2790068 -0.22775601
-0.4511092 -0.039511316 0.16479173 -0.40311053 0.009676608 -0.29436612 -0.86120313 -0.40823597
0.006786155 -0.82479125 -0.024476657 0.49312606 -0.08204894 -0.497392 0.20789392 -0.70272547
-0.24299419 0.30902347 -0.13376847 0.2692683 -0.40676215 -0.51305884 0.37795562 0.22720253
0.6487505 0.32463765 -0.34529373 -0.88916916 -0.8977449 -0.10978761 -0.2465997 -0.40471837
0.037274063 -0.7330747 0.1260688 -0.20319301 -0.4675416 -0.1594627 -0.25075576 0.05011174
0.3506703 -0.01553005 0.055458896 -0.67120844 0.059589647 0.71914536 -0.10636856 0.75433147
0.40038714 1.1970496 0.4019265 0.019111298 -0.04189211 -0.90840966 -0.08787579 -0.2486428
0.20798822 -0.39511958 0.564666 0.39404276 0.7797839 0.21424624 -0.80915916 0.1386851
0.114142485 0.8366922 -0.06314725 0.24375246 0.80949193 0.17502531 0.32452926 0.53642005
0.083863 0.065574594 0.32951963 -0.0794702 0.036190208 -0.48323637 -0.6733757 0.15007684
-0.6275443 -0.14549507 -0.36524385 0.21683227 -0.34535646 -0.3127447 0.28955284 0.4077404
0.5654153 -0.46842092 0.4487685 0.712597 -0.57594883 -0.36630455 -1.0977733 0.07218032
-0.47149953 -0.018388726 -0.83919436 1.3000063 0.395801 -0.013597619 -0.21532689 -0.25260448
0.095758595 -0.10278981 -0.390678 -0.5722873 -0.39389324 -0.18700092 -0.2381301 -0.25902072
-0.27136832 -0.56513816 0.76716405 0.08593693 0.7888135 -0.6766233 0.6034009 0.92309195
0.5793247 -0.14572969 0.451465 0.65092015 -0.1847626 -0.38099638 -0.62860566 -0.45069414
0.23080325 -0.7895543 -0.33241972 -0.8520305 0.44027954 0.027863232 1.0683495 0.13559243
-0.23176198 0.96386135 -0.40809876 -0.29137036 0.05537867 -0.19127111 0.38430908 0.5517509
0.037221666 0.63471216 0.6043057 -0.3056655 -0.6121887 -0.28450677 1.1748276 -0.03840756
0.07060328 0.44361433 -0.0834017 0.6976909 -0.0831212 -0.7473651 -1.0118587 0.093925536
0.37781265 -0.16933171 0.27744877 0.49735853 0.5869424 1.4712034 -0.06972733 0.27501228
